NAOMI/model/model_pretrain.pth (torch, 244421 bytes, 28 tensors)

gru.weight_ih_l0 f4 [150, 1]
00000000: 9b4a 64be 149f 803d a313 fd3d d47a 81bb
00000010: a1e4 333d 8a44 683e 9f27 eebd c957 90bd
00000020: 964a 2e3d a79d e73d a567 d2bd 74a5 3dbc
00000030: da9a 02be e744 7fbd fb01 593d 8284 6e3d
00000040: 9b63 22bd a4e4 b03e 677a 05be ee7c a03d
00000050: bf14 4f3e 50fc d8bd ea5f a83d 37fc 0c3e
00000060: c6e3 edbc 3ca1 663e 82bf 083e 5e72 823d
00000070: ea2d 7d3d 8555 9fbe ecd5 013e 4dd7 1a3e
00000080: fe6e df3d 1085 883d 375f ee3d 74ed 923d
00000090: b1b4 523d 077e 1b3c 7b6f 07be 8627 8d3d
000000a0: 59b1 81bb b007 85bc 14e2 743e bfe9 4b3e
000000b0: ab5c 453d 3b92 8d3c 58f0 89bd 8bde 883d
000000c0: 0464 a53e fb50 99bd e58d c8be e988 3dbe
000000d0: fc06 1fbf 1e5e 61bd 940d 14bf 1d56 adbe
000000e0: dde5 8fbe 3cef 80be 6c3b acbe db2d 98be
000000f0: d207 7bbe fdad 5cbd 8209 9fbe 0adf eabe
00000100: eaba 1fbf 81ed 8abe ff1f 0bbe e9d5 e6be
00000110: ee7b 97be aae3 32be 2308 57be 68a0 7bbe
00000120: ebd5 02bf 8817 cdbe 1002 c2be 48d8 b8be
00000130: 5958 c6bc 0a48 b9be 62b8 1bbe f818 ebbe
00000140: c31a ea3d 0467 6dbe 698c b1be c30b a3be
00000150: 1542 c9be d3db 72be 850d cdbe 092d 7ebe
00000160: a129 55be 17d8 3dbe 89a8 f0be d9b8 25bc
00000170: bddb 05bf 85e9 73be b336 c0be 1952 b3be
00000180: 78a6 63be 7548 67be 4560 b5be 8f43 e8be
00000190: bbdf 4c3e a2cc 32be a06b 0ebe c7f7 bcbd
000001a0: 715b 38be 190e 3fbd 7ae3 323d c3b3 813e
000001b0: ded5 4d3e bd87 fc3c 15dc 463e dccd 0fbe
000001c0: 5f00 003e 208a 2dbe 4ccc e93d 72fa ad3c
000001d0: 350c cbbd cf82 2ebe 087a fb3d e99d fc3d
000001e0: 33d5 163d 4963 0a3e c67c 793e 5555 1bbe
000001f0: 1d7e 5a3e 7b4e 893d fb83 a13d 0a8a 1c3c
00000200: 98bb dfbb 940e 6a3e 4492 febc f6af 593d
00000210: 13e6 99bb c3dd 6ebe 86bd 41bd 8bca 25bd
00000220: bcc2 2f3e 5c91 4a3d 8146 c03d 05f6 bbbd
00000230: a5e5 44bd f3ba 5abd f01c 5d3e 3003 813e
00000240: 66c8 013e 344c 4dbe 7370 41be 00b3 8a3d
00000250: 3f56 80be 38bf 5bbe
-0.22294085 0.06280342 0.12357261 -0.00395141 0.04391921 0.22682396 -0.11628651 -0.07047994
0.0425516 0.11309367 -0.10273675 -0.011575092 -0.12754384 -0.06232157 0.052980404 0.058231838
-0.039645772 0.3454944 -0.13034974 0.078363284 0.20222758 -0.10595 0.08221419 0.13768087
-0.029039275 0.22522444 0.13354304 0.0636947 0.061811365 -0.31119934 0.12679261 0.15121193
0.10909842 0.06666005 0.116392545 0.07174197 0.051441852 0.0094904965 -0.1322612 0.06892304
-0.003957909 -0.016239017 0.23914367 0.19913386 0.04818408 0.017281642 -0.06735295 0.06683072
0.32302868 -0.07486149 -0.39170757 -0.18509258 -0.6212003 -0.055021398 -0.5783322 -0.33854762
-0.2810506 -0.2518252 -0.33639085 -0.29722485 -0.24514702 -0.053876866 -0.3106194 -0.4587329
-0.62394583 -0.27134326 -0.13586424 -0.45085075 -0.29586738 -0.1746966 -0.20999198 -0.24572909
-0.5110766 -0.40057015 -0.378922 -0.3610251 -0.02421205 -0.36187774 -0.15207055 -0.45917487
0.11430886 -0.23183829 -0.34677437 -0.3184491 -0.3930823 -0.23716669 -0.40049377 -0.24821867
-0.20816661 -0.18539463 -0.47003582 -0.010114872 -0.5228842 -0.2381955 -0.37541732 -0.35023573
-0.22231472 -0.22586234 -0.3542501 -0.45364043 0.20007221 -0.17460874 -0.13908243 -0.09226947
-0.18003632 -0.046644304 0.04367397 0.2533246 0.20101115 0.030826444 0.19419892 -0.14043373
0.12500142 -0.16947222 0.1141592 0.021237586 -0.09914438 -0.17042087 0.12279135 0.123348065
0.036824416 0.13514437 0.24364004 -0.1516927 0.21337171 0.06704422 0.078865014 0.009554395
-0.006827783 0.22857124 -0.031075604 0.053146325 -0.0046966164 -0.23326783 -0.047299884 -0.040476363
0.17164129 0.04945503 0.093884476 -0.09177784 -0.04807057 -0.053400945 0.2159307 0.25197744
0.12674102 -0.200486 -0.18890552 0.06772423 -0.250658 -0.21459663

gru.weight_hh_l0 f4 [150, 50]
00000000: 7fbe 37be 92cb 05be 68dd 663d 260c dd3d
00000010: 25fa c43d 9389 073d f35e 86bd 6052 d7bd
00000020: 623e 52be de1e aa3d a6af cbbd 3174 2b3e
00000030: 0937 0abe aeea 483e 9fda b83d bb0d f13d
00000040: 2b46 e0bd 3b35 213e 5203 3b3d 16b5 c23d
00000050: 8e6f 71bc 2332 42be 99b6 f3bd 913e 2b3e
00000060: 5d79 05be 2ebf dabd 471f b3bd d315 5abd
00000070: 8e2d 1f3e a4a0 08be 1ae3 a2bc 9eb1 163e
00000080: c0d8 c73d ef3d 20bd 49ee 5cbe 4ec0 48bd
00000090: e003 a03c 34c4 943d 18ad 013e 8f2b c0bd
000000a0: a9ff e2bd 3508 19be 51e8 823c 5494 2d3d
000000b0: 9e92 14be 8586 da3c 5c88 203e ca19 06be
000000c0: c583 383e f62a 493e 41bb cb3c 9dfd 86bd
000000d0: 964d 1abd d9d3 bbbd 9abc 29be de89 31bc
000000e0: 2783 b33d e6f5 9f3d 29ba 3b3d 1e0a 223e
000000f0: bc63 023e 3c2c d9bd c5ae 063e 9663 21be
00000100: 28a5 b43d 76bc 093d 7fba e43c 79d5 ecbd
00000110: 149a 213d a09e c73b b8f3 89bd 4cd4 853d
00000120: 76bf 4f3e f13f 4abe 33d9 0c3e e7a6 a1bd
00000130: 35ab 08be 065a 97bd de6a de3b ebb4 383e
00000140: b17e 273c da7f 86bc e7e3 e4bc 4432 22be
00000150: 9a16 623d 572d 16bd c6d0 f43d 60ba 03bc
00000160: c7a1 403c 0a1d 81bd 4405 723d d5d5 d33c
00000170: 8db2 32bd e5e2 8b3d f2a7 083e 9d1e ddba
00000180: f756 17be 9423 35bd 198b 0d3d 6234 1abd
00000190: f46d c4bc ac52 80bd 918d 3c3e 9721 0ebe
000001a0: 6077 c43d ab81 0abe 9ee9 253e 3a21 38be
000001b0: 38fb 303b 0cfd d13d 9ac5 4abe b270 dabc
000001c0: 30c3 fdbd 8d7b 913e 0868 a03d effd c83d
000001d0: 9042 0fbd b715 873d 39aa c13c e924 953d
000001e0: 4f6b 7fbc 29bc 35bd 4a86 f2bd 282a e43d
000001f0: 58e7 ddbc 27fe 2bbe 26d5 df3d 2f1e 1dbd
00000200: e360 43bd 550d a2be fc7f b23d 6141 bb3c
00000210: 4a37 213e 1a72 f0bd 4238 8bbd 6adb 133d
00000220: a6a8 513c 9825 883c d1e5 06bd b862 55bd
00000230: 0553 603d f21b b2bd c97c 213d 0353 8cbd
00000240: 96d8 9bbd 65d1 513e e936 ca3d d350 9c3d
00000250: 016e 233e 1f9c d63d f211 d1bb 31c5 39bd
00000260: 43f8 293e 1685 ca3d b84f 7bbc 833d a9ba
00000270: 9e19 a0bc 9343 0ebe 224c a0bb 0a16 b93c
00000280: 0973 a2bd 843c 203e 07d4 19be 162e d43d
00000290: 8442 c1bd 0971 babd 7bd8 21be ac3f b9bd
000002a0: ad5e 5e3d d8c7 03be 5ce5 0cbe 2b07 cebd
000002b0: cf3b 0b3e ac21 fe3d e8e5 0b3d 7b64 0cbe
000002c0: d108 223c 6177 ebbc 127b 8dbd eaca a8bd
000002d0: 0aad 683c 3eb0 61bd 7ce4 2abe 4213 5dbe
000002e0: 4c3c f73d 4178 0b3d 7a6d 783d 9fae 83bd
000002f0: 8cef 233b 51ea 403e cb1b 9c3c e500 3a3d
00000300: e86d cebd 81a8 0abe 71bd 08be da8c 1d3e
00000310: 594f a9bc 2c9b 163e 7be6 d73d 4275 cf3d
00000320: 36d6 d73d defe 0fbe b3a7 c53d 58fb 09be
00000330: a4a4 2b3d f383 36bc 13f6 ec3d d5e3 ef3d
00000340: aeb4 40bd f02c 653b 71d6 8e3d 98d7 ddbc
00000350: d803 60bd e379 0f3e cdf6 4f3d 9865 903e
00000360: c961 2ebc d755 563e a4ae 9e3d da03 9c3b
00000370: 6788 2b3e 65b0 40bd 11d6 a83d 4eff 0c3e
00000380: 862b 0abd 1bcf 373a afe3 223e 4679 c93d
00000390: 9ee7 f5bd 0ab2 673d 11f6 1c3d b8e4 4d3e
000003a0: d641 2f3e 0238 00be cb5e 80be 9912 2e3d
000003b0: 5c0b 82bd 7c8c 1cbd c866 473e 255d 61bd
000003c0: 9e56 f0bb cfe3 78bd 7d6e aebd 8d29 2b3c
000003d0: cc58 35bc 8bf0 e6bc e3ae 68bd 3aa7 0b3e
000003e0: 7e80 debd 3da6 09be 86ba 6b3e 5887 3ebe
000003f0: 979e 6ebe 5aaf cb3c 578c 04be 9d80 cbb9
-0.17943762 -0.13065937 0.056363493 0.10793333 0.09618024 0.033090185 -0.06561079 -0.10513759
-0.2053161 0.08306669 -0.09945612 0.16743542 -0.13497557 0.19620773 0.09026074 0.11770197
-0.109508835 0.15742962 0.045657463 0.09507196 -0.014736069 -0.18964438 -0.11900062 0.16723086
-0.13034578 -0.10680996 -0.087462 -0.05324347 0.15544721 -0.1334253 -0.019883681 0.14716193
0.09758139 -0.039121564 -0.21575274 -0.04901152 0.019533098 0.07263985 0.12663686 -0.09383308
-0.110839196 -0.14944537 0.015979918 0.042377785 -0.14509055 0.026675472 0.15677017 -0.13095775
0.18019016 0.19645295 0.024869563 -0.06591342 -0.037671648 -0.09171266 -0.16575852 -0.010836093
0.0876525 0.07810573 0.045831833 0.15824172 0.12733358 -0.1060414 0.13152607 -0.15760645
0.088205636 0.033626996 0.02792096 -0.11564154 0.03945358 0.0060919076 -0.06735939 0.06534633
0.2028788 -0.19750954 0.1375473 -0.07893162 -0.1334656 -0.073902175 0.006787642 0.18037765
0.010223077 -0.016418386 -0.027940704 -0.15839487 0.055197336 -0.036664333 0.11953883 -0.008040041
0.011757321 -0.06304367 0.059087053 0.025858799 -0.04362731 0.06830386 0.13345316 -0.0016870085
-0.14779268 -0.044223383 0.034556482 -0.037647612 -0.023978211 -0.062657684 0.18413378 -0.13880001
0.095930815 -0.13526027 0.16202399 -0.17981425 0.0027005207 0.10253343 -0.19801942 -0.026665065
-0.12390745 0.28414574 0.078323424 0.09814059 -0.03497559 0.06595939 0.023640739 0.07282431
-0.015589549 -0.044368897 -0.1184202 0.11140853 -0.027087852 -0.1679617 0.10929327 -0.038358863
-0.04769982 -0.31650797 0.08715817 0.022858324 0.15743747 -0.11740513 -0.0679784 0.03609792
0.012796557 0.016619489 -0.032934014 -0.0520961 0.054766674 -0.086967364 0.039425645 -0.06851771
-0.0760967 0.20490034 0.098737545 0.076326035 0.15959932 0.104789965 -0.006380313 -0.045354072
0.1659861 0.098886654 -0.015338831 -0.0012912009 -0.019543465 -0.13892965 -0.0048918882 0.022593517
-0.079320975 0.15648085 -0.15022288 0.10360353 -0.09436515 -0.09103591 -0.15805237 -0.090453476
0.05428951 -0.12869203 -0.13759369 -0.10059961 0.13597034 0.12408766 0.034154803 -0.13710205
0.009889797 -0.028743448 -0.069082394 -0.08241828 0.014201412 -0.05509972 -0.16688722 -0.21589378
0.120720476 0.03405023 0.06065128 -0.06429791 0.0025014607 0.18839385 0.019056221 0.04541101
-0.10079557 -0.13540842 -0.13353516 0.15385762 -0.020667719 0.14707631 0.105420075 0.10129787
0.10538904 -0.14062068 0.09651127 -0.13474786 0.04190506 -0.011139858 0.115703724 0.117133774
-0.04704731 0.0034969412 0.06974495 -0.027080342 -0.054691166 0.1401134 0.050772477 0.2820251
-0.010643431 0.20931183 0.07748154 0.0047612013 0.16751252 -0.047043223 0.08243955 0.13769266
-0.033732913 0.0007011757 0.15907167 0.09837584 -0.12007068 0.056566276 0.038320605 0.2010678
0.17114958 -0.12521365 -0.2507232 0.042498205 -0.06349823 -0.038219914 0.19472802 -0.05502047
-0.0073345443 -0.06076413 -0.08517168 0.010446918 -0.011068534 -0.028190872 -0.05680741 0.1363801
-0.10864352 -0.13442321 0.23020372 -0.18606317 -0.23302685 0.024863888 -0.1294416 -0.00038815002

gru.bias_ih_l0 f4 [150]
00000000: 1eb2 17be 8096 b73d edd2 a83d e12c ab3d
00000010: 200e 743c 16a4 733e 6233 383e 87a1 873d
00000020: d24c c03d b8d7 9ebb 056b db3d 1511 c4ba
00000030: 74a6 053e 99eb 81bc dbf9 0e3e 29c3 513d
00000040: 164a 2c3e fb70 383e ed1f a0bd 4fb9 293e
00000050: fb13 1bbd 32cb e93b 58c4 b43d c26d 173d
00000060: d473 e3bd 7a68 43bd c8a8 123e 3097 733c
00000070: b084 edbc fd0c d2bd e097 383d b107 673d
00000080: 5299 e2bc ec43 113e b3d1 e93c 4788 883d
00000090: d9f3 de3d 83f5 1b3e 61a9 113c ce4a 263c
000000a0: e954 143e 6013 bcbd f9be 763d 14e3 683d
000000b0: 66d0 eb3d bea7 623d 2e8c 6e3d ef05 c6bd
000000c0: dc42 cb3d 0d4f f1bc dffa 87be bcc9 9dbc
000000d0: 2d80 eebe 2514 82be ad54 e9be cc0b 593e
000000e0: d73a a8bd ba69 e6be bcf4 71be 89e9 50be
000000f0: 907e a8be 79b8 d4bd 520f 87be 8595 92be
00000100: 90ed e5be 5cd9 89be 861d 233e ee39 d8be
00000110: 3b13 a9bd c731 93be 35db 46be 64f6 b0be
00000120: 05e5 9cbe 547a 94be 5929 87be f5e2 f8bd
00000130: 70fd b53e 8ba8 bcbe 20f1 20be b807 fcbe
00000140: 5976 a7bc 7049 5c3e bdd0 d9be 7a7f a8be
00000150: 8575 96be 0ef2 2bbe 7d05 ac3d 52b9 05bf
00000160: 8b7a 54be 8923 0bbe 6cdc 9cbd e469 d2bc
00000170: 9a0d f4be aff6 40be 219e 3cbe 0698 debe
00000180: b602 c8be c261 86bd 7629 aabe 0884 acbe
00000190: d93f bc3d 4203 073e 4120 f7bc 6488 e7bd
000001a0: af1d aa3d db72 7b3d cac1 58bd 09cb 133c
000001b0: dde6 6ebd 8d33 443d be12 81bd 10e6 cdbd
000001c0: b35e 123e bd53 4c3d ecb1 f33d 1a99 e73d
000001d0: 4a56 ce3d 85f3 b3bc 3b52 f43d 1a8d 833d
000001e0: 49b1 e83d 36db f03c bc48 aabd 6873 8d3d
000001f0: b0d6 e33d 86d4 ccbc 7b7f 0fbe a44b 1d3e
00000200: 0dd0 d2bd cd36 4dbd bc1c 003e ea2f 35bc
00000210: 8a49 e73d ca88 fc3d 284f fbbd b6c9 3cbd
00000220: 5588 07be 616a 32be 8c95 f03d c8e9 d7bb
00000230: b53e 2b3e e4e1 923d e426 a2bd 90bb b73d
00000240: b64b 323c a615 0b3d 2d50 fcbc af93 13be
00000250: 188b a53d 4992 163d
-0.1481404 0.089642525 0.08243356 0.08358169 0.014895946 0.23793063 0.17988351 0.06622606
0.09389652 -0.004847493 0.10713772 -0.0014958704 0.13051778 -0.015859412 0.139625 0.05121151
0.16825137 0.18011849 -0.07818589 0.16574596 -0.03786085 0.0071348185 0.08826512 0.036969908
-0.11106077 -0.04770706 0.14322197 0.014867589 -0.028993934 -0.102563836 0.045066714 0.05640382
-0.027661 0.14186066 0.028542375 0.06666618 0.10886354 0.15230374 0.008890481 0.010149671
0.14485516 -0.09183383 0.06024072 0.056857184 0.11514358 0.055335753 0.058239155 -0.096691005
0.09924862 -0.02945664 -0.26558587 -0.019261234 -0.46582165 -0.25405994 -0.45572415 0.21195906
-0.08214348 -0.45002538 -0.23628515 -0.20401587 -0.3290906 -0.10386748 -0.26378876 -0.286297
-0.44907808 -0.26923645 0.15929231 -0.42231697 -0.08255621 -0.28748915 -0.19419558 -0.3456298
-0.30643478 -0.2899958 -0.26398733 -0.121526636 0.3554492 -0.36847338 -0.15716982 -0.4922464
-0.020442175 0.21512389 -0.42542067 -0.32909757 -0.29386535 -0.16791555 0.08399484 -0.522359
-0.20749871 -0.13587774 -0.0765923 -0.025685258 -0.47666627 -0.18844102 -0.18419696 -0.4347536
-0.39064568 -0.065616146 -0.33234757 -0.33694482 0.091918655 0.13184837 -0.030166747 -0.11305311
0.08306443 0.06138883 -0.052919187 0.009020575 -0.058325637 0.047900725 -0.06302403 -0.100536466
0.14293937 0.049884547 0.1189917 0.11308499 0.10075052 -0.021966705 0.11929747 0.06423397
0.113619395 0.029401403 -0.08314654 0.069067776 0.11124933 -0.025003683 -0.14013474 0.15360886
-0.10293589 -0.05010109 0.12510961 -0.011058787 0.11293323 0.12330778 -0.12270957 -0.046090804
-0.132356 -0.17423393 0.11747274 -0.006589148 0.1672314 0.071719915 -0.07917574 0.089713216
0.010882309 0.033956192 -0.03079995 -0.14411806 0.08083171 0.036760602

gru.bias_hh_l0 f4 [150]
00000000: 906e c3bd 3f0e 69bd 9c36 273d 7dcc 6abc
00000010: 26fa b03d 6cd3 43bc cd99 5bbd f73c a6bd
00000020: a3ac 333e db86 87bc 8f05 82bd 8ed7 b03d
00000030: 23ab 46bd d236 35bd 69db 4b3d a7b3 813e
00000040: 8905 40bd c90a 7e3e 448b 77bd 306e fb3c
00000050: d324 6d3d 415c 8cbd 224c 043e b69b c8bc
00000060: aab8 b6bd de9d 31bd ca96 673e 82d1 cd3d
00000070: 99d1 68bd 4a2b 74bc 075b bc3d 2c03 e23c
00000080: 198a 173d b648 4c3d 0bdf 0e3e 1939 8b3d
00000090: d487 393d 5457 673d c17f 9dbc b6b3 6f3c
000000a0: eca4 dbbd 71ad 793d d467 1bbc d604 0bbd
000000b0: fd8f 52bc 35ad 923d 0ca0 34bd 26ec ff3d
000000c0: 4821 213e 7d0c 5dbc 274f 9ebe 6c33 d4bd
000000d0: e798 f8be 4779 bbbd cc17 2cbf 753a 943c
000000e0: 7979 47bc da5d 98be f0a0 c3bd 174b 27be
000000f0: 884c aabe bf1d cebc 2830 20be 114c 53be
00000100: abaf f7be 7a00 a5be 72e2 723e 75d5 d2be
00000110: 802f 16be 74d0 7cbe f888 abbe 5277 cdbe
00000120: d687 4bbe 8f86 e6bd 65ca 0bbe 35b2 88be
00000130: 2d92 773e 631c afbe 1d4d 35be acd6 babe
00000140: 1a91 193d 6670 803d d136 63be 6170 00be
00000150: cda5 9fbe 8592 41bc 502d 93bc 0ced fabe
00000160: 013c 9abe 709d c1be 6c10 37bd 1868 dc3c
00000170: 736d 19bf d982 6abe 911e 43be e406 56be
00000180: c403 8ebe c88e 08be dc0d ddbe 6271 b9be
00000190: 4eb8 2cbe 4dc8 6cbc 5cba aabd 79c3 24be
000001a0: 897d c13c 9899 e13d cc83 4bbd 42f9 49bc
000001b0: 11f9 49bd e520 173e 1ff6 bb3d bf82 e43d
000001c0: 3786 2f3c e07e 863d 05ef 2d3d 13fa 193e
000001d0: bf9c 763d c68c e73d d16c be3c af1b 95bc
000001e0: a398 273e 5c1a 6cbd 1358 b3bd 803f 1dbd
000001f0: aaec 9b3d f59c 613d 93e2 c4bb 61da cf3d
00000200: cc7b 5b3d babb d1bd 8385 eabd e787 ffbd
00000210: e814 42bd db18 ef3d 88fa 1c3d 7455 993d
00000220: a062 b13d cec2 0ebd d966 07be 9af3 b4bd
00000230: 795d 0abd aef9 ebbc 575e 1a3d 8585 f43c
00000240: 4c07 013e 9d6d ecbd b914 013c 724e adbd
00000250: 2f9d c9bd 28f4 bd3c
-0.095425725 -0.05689835 0.040823564 -0.01433098 0.08641462 -0.011952262 -0.053613473 -0.08117097
0.17546324 -0.016543796 -0.063487165 0.08634864 -0.048503052 -0.044241734 0.049769793 0.25332376
-0.04688028 0.24808802 -0.06043555 0.03069219 0.057896446 -0.068535335 0.12919667 -0.024488311
-0.089219406 -0.043363445 0.22616115 0.10049726 -0.056840513 -0.014902899 0.091970496 0.027589403
0.036996935 0.04987403 0.13952272 0.06798 0.04529555 0.056479767 -0.019225957 0.014630249
-0.10724816 0.060956422 -0.009485204 -0.03394016 -0.012851712 0.07161943 -0.044097945 0.124962136
0.15735352 -0.013491747 -0.30919763 -0.103613704 -0.48554155 -0.09153991 -0.6722381 0.01809428
-0.012174957 -0.29759103 -0.09552181 -0.16337238 -0.33261514 -0.025160668 -0.1564337 -0.20634486
-0.48376212 -0.32226926 0.23719195 -0.4117848 -0.14666557 -0.24688894 -0.33502936 -0.40130097
-0.19876036 -0.11256134 -0.13651426 -0.2669846 0.24176855 -0.34201345 -0.17705198 -0.36491907
0.037491895 0.06271438 -0.2218888 -0.12542869 -0.31181183 -0.011814718 -0.017965943 -0.49008977
-0.30123904 -0.37815428 -0.044693395 0.026905105 -0.5993263 -0.22901477 -0.19054629 -0.20901066
-0.27737248 -0.13335717 -0.43174636 -0.36219317 -0.16867182 -0.014452052 -0.083363265 -0.16090192
0.02361943 0.11015624 -0.04968624 -0.012327494 -0.049309794 0.14758642 0.09177803 0.1115775
0.010713152 0.06567168 0.042464275 0.15036802 0.06020808 0.11306147 0.023245247 -0.018201677
0.1636682 -0.057642326 -0.08757033 -0.038390636 0.076134995 0.055081327 -0.006008455 0.10149074
0.05358486 -0.10240884 -0.114512466 -0.12477093 -0.04738322 0.11674663 0.038324863 0.07487002
0.08661389 -0.03485375 -0.13222827 -0.08835526 -0.03378055 -0.02880558 0.037687626 0.029848823
0.1260044 -0.115443446 0.007878476 -0.08462228 -0.098444335 0.023187712

gru.weight_ih_l1 f4 [150, 50]
00000000: 9073 b93d 5f00 bd3d f370 083d e2ba 04b9
00000010: 9940 c83d 1366 073e fc64 0e3e aad2 343e
00000020: 89fd 42bd 6ead 7c3d 7a30 1e3e 8134 c4bd
00000030: b1ce 173e e4f0 1c3e 5621 d7bd 21a3 65bd
00000040: 80df 353e 87ce c3bd af68 323e 1264 a53d
00000050: ea72 f8bd e19b 323e 1fee 8fbd b248 25be
00000060: ab11 d03d d9e8 1abe 8237 8c3d e7c2 193d
00000070: 247e b7bd 0a35 673c 98f6 673d ae04 24bd
00000080: 2508 7e3d 640f 28bc 5478 0abe f77f 84bc
00000090: a7c5 04be 4f96 e2bd 9d36 2e3e 3bb6 b0bd
000000a0: 6031 13bd b028 cdbd 8f72 c5bc 8021 e03d
000000b0: 9b01 923d acc2 203c b95e c03d ca76 10be
000000c0: f3e2 46bc 9d25 22be 699b 943d 43f6 e1bd
000000d0: 8bee 1dbe b6ab e6bd 2644 243e 8c44 5e3d
000000e0: c73b 2e3e a2df a63d 0989 453d 5990 1c3e
000000f0: 344e 8d3d 47a9 b8bd 4ad9 093b d616 1d3e
00000100: 5c80 d6bd 096d 9e3e 9e2c 3f3c c07b 2f3e
00000110: 168b 46bd a501 f9bb 8437 50bd 4160 733e
00000120: 218c 6b3d 1fad 46be 3e71 f33d 606e 8cbb
00000130: f152 053e 9e62 1b3e 55df 12bd 5e39 f23c
00000140: 3556 bdbc ba6f 2bbd 5ef8 753e 2cc3 51bd
00000150: e621 3ebe 7b1d c5bd f615 fd3d d1f7 b03c
00000160: ac10 533c 90c7 4abd bad4 873d df57 273e
00000170: d459 013e 4d94 d7bd b280 fdbd 5657 3dbd
00000180: 0dbb 0fbe 4502 0dbd 3c10 77bd 97f7 23be
00000190: 3a68 2abe 6c05 0f3e 58b6 413d 2deb d63d
000001a0: e546 92bc ba93 3abd 329c 14be f334 b83d
000001b0: 6ba0 a53c 607d fa3c 6b9f 3e3d 8615 273e
000001c0: 36d0 a4bd 1a7b 2f3e 6466 5fbd ed6a 8f3d
000001d0: 9c4a 223e b4be df3d cd4e b7bd f1ef 46bd
000001e0: fd23 92bc 7422 c5bd 18ba 57be 1add c3bc
000001f0: e67b bdbc f9ba 60bd 571b 013d 0946 17be
00000200: 2962 2a3c 9b1c a1be a896 983d 216f 18be
00000210: ff67 bebd 1f88 8abe 02ba 51bd 02ea e0bd
00000220: 7663 2b3d d032 713c 1aeb 9a3d 6aaa 523c
00000230: 55d7 ae3a 84ed 50bd 5779 c7bc 9cf0 9ebc
00000240: f82f d43c 15a8 b83d 1540 aabd 6198 dfbd
00000250: c6d2 24bd 3a57 313e c4ac 11bd 6852 b93d
00000260: c491 db3d 0916 6e3d 5e1f 4e3e 4279 8b3c
00000270: ba34 0c3e bc8d f2bc 32d2 9f3c 32b5 8dbc
00000280: f5c2 40bd a020 3e3d e1ac 90bc 2243 2b3d
00000290: da70 563d 79e2 24be fcdd 06be 13f1 93bd
000002a0: 9ece 3cbe b1f1 0a3e 6008 b1bd 0752 31be
000002b0: 96b9 c8bd 3c2e 46bd dc10 863c c727 35be
000002c0: 7b9e cf3d 981e 053c 25c0 133e 8d5f 2c3d
000002d0: 37b2 12bb 4092 2e3e cac3 f7bd 89fd 99be
000002e0: 7ce4 ac3c 8df8 96bd b6b5 ce3d e7db 403e
000002f0: 497e 9ebd a1df 423e 6146 b8bd 00b7 1fbd
00000300: ca15 1dbe 2bea a9bc 8789 38be 9caf 933c
00000310: 165e bf3d 6b82 3a3e 85fd 663d 555c 383e
00000320: fdc5 013e e4b3 de3d 7e2f f83d 6669 703d
00000330: 260c c3bd 3f24 313e 687e 16be a14f b53d
00000340: eeec 8c3b 42ae 243e a5d1 2b3d 7fbd 0ebe
00000350: 1748 3c3d c3c4 fe3d 06b7 e63c e5b1 123e
00000360: cfa3 ec3d a551 e23c a740 d2bc b533 553d
00000370: d5db dd3b 6926 193d 64c1 b33d c489 433d
00000380: 4d31 78bd d3cc cbbc 0cc9 4ebe c9ed 683d
00000390: f4be d93d f30b a33d 160e c1bd b85b a8bd
000003a0: 6c54 123d 5d65 a5bd 198e 0bbd a124 cf39
000003b0: c4e1 92bc 9358 a4bd 4ee2 d2bd 3266 68bd
000003c0: 7dc2 323e a983 363e 478d fbbc 02a3 4c3d
000003d0: f8df d03c 37c4 c0bd c2f6 2bbd 2dcf 0ebd
000003e0: 6ab3 5a3d ec2f 503a d976 083e 67d3 013e
000003f0: 4ef0 2ebe 019a 603d b0e4 06be 262c fbbc
0.09055245 0.092285864 0.03331084 -0.0001265812 0.09777946 0.13222532 0.1390571 0.17658487
-0.04760507 0.061688833 0.1544818 -0.09580327 0.1482494 0.15326267 -0.10504405 -0.056063775
0.1776104 -0.09560876 0.17422746 0.080757275 -0.12131293 0.17442276 -0.0702784 -0.16141012
0.1015962 -0.15127887 0.06846525 0.03753939 -0.08959606 0.014111767 0.056631655 -0.040043525
0.062019486 -0.010257576 -0.13522464 -0.0161743 -0.12966023 -0.11063825 0.17013021 -0.08628508
-0.03593576 -0.10017526 -0.024102477 0.109438896 0.071292125 0.009812038 0.09393067 -0.14107814
-0.01213907 -0.15834661 0.07256205 -0.11033299 -0.15423028 -0.1126322 0.16041622 0.05426459
0.17014991 0.08148123 0.04822639 0.1528944 0.06899682 -0.09016662 0.0021034055 0.15340742
-0.10473701 0.30942562 0.011668352 0.1713705 -0.048472486 -0.007599073 -0.050834194 0.23767187
0.057506684 -0.19401978 0.118868336 -0.0042856187 0.13019921 0.15174338 -0.035857517 0.02956837
-0.023112396 -0.041854598 0.24020526 -0.05121152 -0.18567619 -0.096247636 0.12357704 0.021602543
0.012882393 -0.049506724 0.06632371 0.16342114 0.12631923 -0.10526333 -0.12378062 -0.04622587
-0.14036198 -0.034425993 -0.060318217 -0.16012417 -0.16641322 0.13966912 0.047293037 0.10494075
-0.01785607 -0.04555104 -0.14512709 0.08994474 0.020218095 0.030577362 0.04653875 0.16316804
-0.080475256 0.17136803 -0.054541007 0.07002816 0.15848774 0.109250456 -0.08950577 -0.04856867
-0.017839426 -0.09625712 -0.21067083 -0.02390914 -0.023130368 -0.05486581 0.031520214 -0.1477281
0.01039938 -0.31467137 0.074506104 -0.14886142 -0.092971794 -0.27056977 -0.05120278 -0.109821334
0.0418429 0.014721587 0.07564373 0.012858013 0.001333932 -0.051007763 -0.024349852 -0.01940184
0.02590178 0.09016434 -0.08313004 -0.10917736 -0.04024007 0.1731843 -0.035565153 0.09048921
0.10721162 0.058126483 0.20129153 0.017025594 0.13691989 -0.0296086 0.019509409 -0.017298315
-0.047060926 0.046417832 -0.01766056 0.04181207 0.052353717 -0.16102017 -0.13170618 -0.07223716
-0.18438193 0.1356876 -0.086441755 -0.17316447 -0.09801023 -0.048383936 0.016365461 -0.17690955
0.101376496 0.00812497 0.14428766 0.04208331 -0.0022384056 0.17047977 -0.12097891 -0.30076244
0.021105044 -0.07371626 0.10093252 0.18833886 -0.07738931 0.1903062 -0.08997799 -0.03899288
-0.15340343 -0.020741543 -0.18021213 0.018028073 0.09344117 0.18213813 0.05639412 0.18003972
0.12673183 0.10874155 0.121184334 0.058694266 -0.095238015 0.17298983 -0.14696658 0.08853079
0.004300705 0.16082099 0.04194798 -0.13939475 0.045967188 0.12439873 0.028163444 0.14325674
0.115546815 0.027626822 -0.025665594 0.052051265 0.006770591 0.037390146 0.08777121 0.047738805
-0.060593892 -0.024877941 -0.20193881 0.056867395 0.106321245 0.079612635 -0.09426515 -0.08220619
0.035725042 -0.08075974 -0.03407106 0.00039509407 -0.017929919 -0.08024707 -0.102970704 -0.056738086
0.17457004 0.17823662 -0.030707015 0.049960144 0.025497422 -0.09412425 -0.041983373 -0.034865547
0.05339376 0.0007941711 0.13326587 0.126783 -0.17083856 0.05483437 -0.13173175 -0.0306607

gru.weight_hh_l1 f4 [150, 50]
00000000: b5ca 1abe d64d ebbd c82b 0cbe 3f80 10bd
00000010: 99a1 033e 74bd 773e 7c9e 62bd 6e89 cbbd
00000020: 91e8 a43d 88b9 1d3e 5d58 093e 194d a3bd
00000030: 8519 c53d c8b2 bfbb b6f2 8bbd 944a 1fbe
00000040: f68a 31bd 4ce1 c7bd 13db f3bd 4a22 523d
00000050: 0b64 093e 9ee7 88bd a933 32bd 9185 79bd
00000060: 828f 543c 6e97 dfbc 787b dc3d ad73 e73d
00000070: 2dd3 cf3d a67f ca3d bfb8 f3bd a66b 6f3c
00000080: 1393 64bd e5e5 803c f38f 543d 118b 08be
00000090: 9320 6ebd e344 6d3d 6be7 a43c 7492 ddbd
000000a0: 3c43 f3bd 0a08 413d c10e a7bc c128 c03d
000000b0: 7358 493d 0f34 c0bd 6a28 32bd ea8a 073e
000000c0: 96b2 b93c b351 b63d b840 d0bc ccbb 1dbd
000000d0: 4a30 28bd da07 b93d 11ed fbbd 7553 cebd
000000e0: 4108 eb3c 6a84 a9bd 731d c9bd 10ad 1d3e
000000f0: dd57 aebc f0bc 303e 871f 183d 1e9b 2cbe
00000100: f025 d5bd d35a b13d 48c2 b13d bec9 65bd
00000110: 014d 98bb ccda 01bc e950 bf3d 3331 b93d
00000120: d57c 8ebd 34dd 3cbc 2ba9 dbbb 9fa4 73bd
00000130: e52a b6bd d2a2 9ebc 81f8 5e3e 1154 0e3c
00000140: 3e7d 85bc 384c 22be e6d9 d8bd 72c0 af3d
00000150: 7c6a c73c 2b62 6f3d 090d 433c 49a9 273e
00000160: 91f9 1d3c 1284 203c 1f96 83bd 4ef9 643d
00000170: b982 2b3c b046 8b3d fea5 293b 4879 30be
00000180: 1bb9 15bd 5654 26bd bd4c a7ba 3bed 89bc
00000190: 51f4 85bd 23f3 b43d fea3 eabc ed78 1a3e
000001a0: 614e a7bc 0f5b 41bd 5989 a73d 9485 953d
000001b0: 440c 7cbd 22d2 cc3d 26f9 053e 51c2 47bd
000001c0: b8e7 dfbd 9712 7dbc 2086 243e be32 a33d
000001d0: 8548 87bd 3778 febd 5546 04be 7019 b9bd
000001e0: df2a 21bd a16c 9bbc c1ff c6bc 935e ccbd
000001f0: 627c ccbc 7d62 973b 0eb7 58bd 1c19 8a3d
00000200: 8f12 47be de3a 03be 0b43 133e 6194 16be
00000210: 94cb afbd 6388 4e3d a61d af3d c4d9 063e
00000220: 6a50 353e 386f 39be 59eb 353e fde7 023d
00000230: b7b7 40bd 98d5 f9bd 4861 323e a164 50be
00000240: 2ec6 1cbc f476 a93d ab40 773d 8e14 39be
00000250: e622 343d 8f00 ddbd bac8 7dbc ac85 a63c
00000260: 5f8a 73bd cf8c 1fbd c822 6a3e 700f 0f3d
00000270: cbe3 203d 8647 2e3d 21fe 16be 4fea 35be
00000280: aae1 913c fe27 193e 582e 033e cd0e 12bd
00000290: 1bc8 613c 55db 3e3e fe69 4c3d 47e9 abbd
000002a0: 10dd 32be 04cc 24be d4c5 053d 88c1 8f3d
000002b0: b325 5a3e cf67 e93c 3991 b83d cc78 13be
000002c0: a445 5cbe 0489 5c3e c774 3cbe 0da7 213e
000002d0: 37b7 4b3e 325e f1bc 306b cbbd d4f4 88bd
000002e0: 4039 373e ce26 253d 7ac3 503d bc7d d2bd
000002f0: aaab 2f3e cced b2bd 37bf e6bd 9f88 a13c
00000300: e2fe 593d 2ba5 cf3c c848 ab3d e180 9d3c
00000310: 77b5 67bb d822 97bd 0c6b 76bd 6899 133d
00000320: f45e 0fbe 5f9f 3cbd a4fd ebbd 6cb0 b0bd
00000330: 7fa7 ae3d dc90 a33d eb24 a4bd 5cfb 8f3c
00000340: 44ad 8d3d ae98 083e c11f 973d dcdd e0bd
00000350: c297 4dbd d260 babd f4fd 0b3d 1736 35be
00000360: 3371 0cbe 0050 c4bd a115 663d dd7f 4c3d
00000370: 7d09 1e3e 011b 6e3e fd6d 4ebc 3272 78bd
00000380: fea4 ab3c 9b29 c5bd f1ce 1f3e 8026 11be
00000390: 061e db3c 004d 20bd 477a 82bd b0eb 99bd
000003a0: 1bb2 82bc c072 c4bd 351c 273d 903e ee3d
000003b0: ab0b f63d dcac 7f3d 083d fc3b c62f 71bd
000003c0: 3bb9 8a3d 578c b2bd 5e21 363d deb5 013c
000003d0: 96ea b13c f48a c2bd 908b 8b3d c6e8 75bd
000003e0: b079 003e 357d a9bc 4123 493c 6c9b 7dbe
000003f0: 46bf 69be db4b 17be 10c3 623d ad32 b6bd
-0.15116389 -0.114894554 -0.13688576 -0.035278555 0.12854613 0.24193364 -0.055326924 -0.09938322
0.08052171 0.15402806 0.13412614 -0.079736896 0.09624008 -0.00585017 -0.06833403 -0.15555793
-0.043345414 -0.09759769 -0.119070195 0.05130223 0.1341707 -0.066848025 -0.0435063 -0.060918394
0.012973668 -0.027293887 0.10765737 0.1130136 0.101477005 0.09887628 -0.11900472 0.014613068
-0.055804323 0.015734622 0.051895093 -0.133343 -0.058136534 0.057927024 0.02012988 -0.10818949
-0.11878058 0.047126807 -0.020392777 0.09382773 0.049156617 -0.093849294 -0.043495573 0.13236585
0.022668164 0.08902302 -0.025421485 -0.038509175 -0.041061677 0.09034701 -0.12301076 -0.10074512
0.02869046 -0.08277209 -0.0982007 0.1539805 -0.02128213 0.17259574 0.03713944 -0.16856048
-0.10407627 0.086599015 0.08679634 -0.0561006 -0.0046478515 -0.0079257 0.09341604 0.09042587
-0.069574036 -0.011527348 -0.006703516 -0.059483167 -0.088949 -0.019364748 0.21774484 0.008687035
-0.016295072 -0.15849388 -0.10588436 0.08581628 0.024342768 0.05844323 0.011904963 0.16373171
0.009642021 0.009797113 -0.06425118 0.055901818 0.010468178 0.06800592 0.0025886293 -0.17233765
-0.036553483 -0.040607773 -0.0012763959 -0.016836753 -0.0654074 0.08835437 -0.02864265 0.15085192
-0.020423116 -0.04720598 0.08180494 0.07300869 -0.061535135 0.10001017 0.13083324 -0.0487693
-0.10932869 -0.015446327 0.1606679 0.07968663 -0.06605629 -0.12425273 -0.12917455 -0.09038055
-0.039347526 -0.018972697 -0.024291875 -0.09978976 -0.024961654 0.004619895 -0.05290895 0.067430705
-0.19440673 -0.12815425 0.14381044 -0.1470504 -0.08583751 0.050423037 0.08550577 0.13169008
0.17706457 -0.18108833 0.1776556 0.031959523 -0.047050204 -0.12198943 0.17419922 -0.20350887
-0.009568734 0.08274642 0.060364407 -0.18074247 0.043978594 -0.10791122 -0.0154897515 0.020327412
-0.059458133 -0.038952645 0.2286483 0.03492683 0.03927974 0.04254868 -0.1474538 -0.17765163
0.0178078 0.14956662 0.12810647 -0.035658646 0.013780619 0.18638356 0.04990577 -0.083941035
-0.17467141 -0.16093451 0.032659367 0.07019335 0.21303444 0.028491883 0.09012074 -0.14401549
-0.21510941 0.21536642 -0.18403922 0.15786381 0.1989411 -0.029463861 -0.09932554 -0.06687322
0.17892933 0.04032021 0.05096767 -0.10277888 0.17155328 -0.087367624 -0.1126694 0.019718466
0.05322159 0.025347313 0.08363491 0.019226493 -0.0035355964 -0.07379693 -0.06016068 0.03603497
-0.14001065 -0.046050426 -0.115229875 -0.086274 0.08528041 0.07986614 -0.08014854 0.017575912
0.069178134 0.13339493 0.073791035 -0.10979816 -0.050193556 -0.09100498 0.034177735 -0.17696415
-0.13715057 -0.09585571 0.05617297 0.049926627 0.15433307 0.23252489 -0.012599465 -0.06065578
0.020952698 -0.09627076 0.15606286 -0.14174843 0.026747715 -0.039135933 -0.06370979 -0.07515657
-0.015954068 -0.09592199 0.040798385 0.116330266 0.12013944 0.06242071 0.007697705 -0.05888345
0.06773611 -0.08718174 0.044465415 0.007916896 0.021718305 -0.094991595 0.06813729 -0.060036443
0.1254642 -0.020689586 0.012276472 -0.2476632 -0.22826871 -0.1477503 0.055361807 -0.088963844

gru.bias_ih_l1 f4 [150]
00000000: ea00 bcbd 43e6 b63d 47fd 21be cd7e 0dbe
00000010: 2f8e 95bd 8f50 babd 220f 2c3d 36ba e2bc
00000020: d1e3 be3d 7869 babd a650 c7bd 23df 253d
00000030: 66e6 003d c83a 113e 3fd3 143d db83 e0bd
00000040: 1c66 873d a949 e03d f4db e0bd b5d6 033e
00000050: e441 c13d 30cc bb3d ce6f 00be 61af 4fbd
00000060: 2baf 07be 7ac2 903a 6054 b13d 5145 0dbd
00000070: 8c3c 723e 0550 633d eaad 49bd 8837 fc3c
00000080: 33af 2e3d 7c58 c93b ee98 eb3d bfd8 b63d
00000090: bbbf ac3d 59a1 b73d b43f e6bc ae44 1a3e
000000a0: 685f 4c3e b3fb 4bbc 6a07 d93c 94ec 173e
000000b0: 4666 433e 6b2c 27be e05e d43c 64e6 c6bd
000000c0: e715 523d 3424 863d e09a b1be 0357 d4be
000000d0: b0c1 3abe 089f c03d 1e23 10be af9d 66be
000000e0: 30b4 4fbe a4d1 4cbe d9f2 29bd d827 7fbe
000000f0: bfa2 f8be 785b bebd 9a16 8fbe 1080 98be
00000100: 0993 82bd 10e2 99be 2a52 96be 3692 60bd
00000110: c141 babd 3621 8cbd b5cc 5bbb 0e45 f1bd
00000120: 2a8e 9bbe fa3c 72bd d1fe 04be 4999 bcbe
00000130: 2f61 febd 443a 2dbe e10f b53c 33b0 f0be
00000140: 3ee8 723c 0f84 07bf 40ff 24bd f2bc 85be
00000150: b9ad c4be 63e1 8dbe 2949 083e fc8f f4bc
00000160: 567b 14bd aef8 3ebe 10ff eebe da76 86be
00000170: 3956 7abe 3b9a 77be 7d6e 12be e801 05be
00000180: 85f6 60be 5bf1 48be 0805 2abe 2ea7 ebbd
00000190: 9eef c5bd aa4a 6e3d 16d5 0dbe 2f3f 87bd
000001a0: d864 e0bd 01c8 9e3d 1a51 3bbd 5178 28bc
000001b0: 6293 f93d b42e 4fbd 15e8 2c3d a041 dcbd
000001c0: f397 f2bd 47e5 90bd 6d4b 38bd 1367 dabd
000001d0: c00c c9bd ad46 c1bd d9c8 4b3d 05e2 c2bc
000001e0: 7848 983d ad2f 013e f791 0b3c ac5c b53d
000001f0: 56c1 d1bc 8e01 223e e3c2 fe3d 54ad 22be
00000200: 7577 ce3d dd02 1bbe 79ff d6bd 3508 a53c
00000210: 7e26 173e f5f8 8e3d e9c3 31bd 02c5 19be
00000220: 2d67 e93c 0e94 0b3e 8ad4 06bd 7d7b 323d
00000230: 14cc 40bc c53d d6bd cde8 893d dfc9 0a3b
00000240: d5f7 0b3d 5fcb ef3c 2436 9cbd 5cff f63d
00000250: 1036 fdbc 28ef 1d3e
-0.09179862 0.08930638 -0.15819274 -0.13817902 -0.0730251 -0.090973966 0.04200662 -0.027676683
0.09320796 -0.09102148 -0.09732179 0.040496003 0.031469725 0.1418258 0.036334272 -0.109626494
0.06611273 0.109515496 -0.10979453 0.12874873 0.09436396 0.09169805 -0.1254265 -0.050704364
-0.13250415 0.0011044287 0.086586714 -0.034489933 0.2365591 0.055496234 -0.049238123 0.030788198
0.04264755 0.0061445814 0.115037784 0.0892806 0.08435007 0.089663215 -0.028106548 0.15065262
0.1995827 -0.0124501465 0.026492793 0.14836341 0.19081983 -0.16325538 0.025924146 -0.09711912
0.05129042 0.06549874 -0.34688473 -0.41472635 -0.18237948 0.09405333 -0.14075896 -0.22521089
-0.2028358 -0.20001847 -0.041491363 -0.24917543 -0.48561665 -0.0929479 -0.2794693 -0.29785204
-0.06375701 -0.30055285 -0.2935956 -0.054826938 -0.09094573 -0.06842272 -0.0033538763 -0.11780749
-0.303819 -0.059140183 -0.1298783 -0.36835697 -0.1242088 -0.16916758 0.022102298 -0.4700943
0.014825879 -0.5293588 -0.040282488 -0.26120716 -0.3841379 -0.2771102 0.13309158 -0.029853813
-0.036250435 -0.18649551 -0.46678972 -0.26262552 -0.24446954 -0.24179928 -0.1429996 -0.12989008
-0.2196904 -0.1962332 -0.16603482 -0.11506496 -0.09664844 0.058176674 -0.13850817 -0.06603848
-0.109567344 0.077529915 -0.04573164 -0.010282592 0.12186314 -0.05058165 0.04221352 -0.107547045
-0.11845388 -0.07074981 -0.044993807 -0.10664191 -0.09816885 -0.094373085 0.04975209 -0.023789415
0.07435697 0.12615843 0.008518687 0.088555664 -0.025604885 0.15820906 0.124395154 -0.15886432
0.10081378 -0.15137811 -0.10497946 0.020145515 0.14760777 0.069810785 -0.043399725 -0.15016559
0.02849158 0.13630697 -0.032917537 0.0435748 -0.011767406 -0.10461 0.06733856 0.0021177453
0.034171898 0.02927178 -0.07627514 0.12060425 -0.030909568 0.15423262

gru.bias_hh_l1 f4 [150]
00000000: 9f12 423d 92f4 1a3e 366a a2ba e3b2 673c
00000010: 57e0 a5bd 13b0 cabc 572c 003e 60c7 8b3d
00000020: 3fe8 ff3d a761 32bb 5f10 a2bd 3d13 05bd
00000030: 2d51 33bd e65a bf3d 1bb8 133d 5723 ba3d
00000040: 4d58 ce3d 41ee 11bd c58c a13d bf05 0abe
00000050: 18dd ff3d be3e d4bd e541 8d3c 26fe 9bbd
00000060: c4cc d1bd f7a2 1b3e 106b 9ebd 10fa 3cbc
00000070: 66bc ea3b b1b5 363e e27c 353d cedd d53c
00000080: 3fd3 c33c 6958 b3bd eaa3 86bd 85fe e7bd
00000090: 8be7 403e 1d64 bd3d ee1e c83d 39c8 aa3d
000000a0: 2d91 fb3d 5bc6 b7bd 2e5a a23c 2fec a03d
000000b0: 405a f53d 80fb a1bc 0325 24bd a26d 72bc
000000c0: 9795 163e b411 033e 4196 35be 23eb 9ebe
000000d0: e05f 8ebc 1bc6 703d c409 d7bd 2f49 36be
000000e0: 2f81 5ebd 7a06 64be ce78 fe3d 6a9e b8bd
000000f0: aa4c d2be b1e6 64be 7222 4cbd 39a4 babd
00000100: 46f1 2d3d d1e0 29be 1496 3ebe 61d9 29be
00000110: 2bb7 1cbe 3a1d a8bd 19ae 3bbe aa5d ccbd
00000120: b8d2 9ebe d88b b4bb c1cd 783d cf09 e1be
00000130: 75aa 65be 8b2f 0bbd e09e 3abe 4dfd 17bf
00000140: a45f 223e 8feb 0ebf cd11 3cbe 4fb5 01be
00000150: fb55 a7be 4772 77be 3b8a 72bd 6025 24be
00000160: 102c 9ebd a86e d6be 8c1c e8be ce78 fbbe
00000170: 7e29 80be 7dab 51be a6d0 8ebe 74c0 dfbd
00000180: 1aea d4bd 9393 03be 9692 63bd 6d2d aabe
00000190: a52a 16be fbec 83bd 0fc0 47bd cbbd 373d
000001a0: ca88 c5bd 81fe 243e 739d 2abe fbed cebd
000001b0: 4045 623c 69f1 143e 22e9 f9bb d4e3 dc3d
000001c0: 0d29 ef3d e0f6 053e bb0a 8a3d 9403 b63c
000001d0: 6ec9 713a 40e2 25bd dd2d 9ebc fc4d 9cbd
000001e0: 44de 92bd 10b3 a53d 1673 07be 2868 dabd
000001f0: c422 a03c d556 a93c bc03 0f3e 09f1 45bd
00000200: a410 153e 7f98 2abd ed6d b4bc d348 9bbd
00000210: 9c2c 233e 2bad 103e 3a40 fbbd 49ab 423d
00000220: ade1 10bd 037a 173d 88dd 90bd 5a43 1f3e
00000230: 74b4 eabd 371e 9a3d 05a4 f23a a5c5 6e3d
00000240: 035f f93d a5f3 d2bd f011 423d 1de5 ed3d
00000250: 39a3 7e3b c6f5 a2bc
0.04738104 0.15132359 -0.0012391272 0.014141771 -0.0809943 -0.024742162 0.12516914 0.06825137
0.12495469 -0.002721885 -0.07913279 -0.03248905 -0.043778587 0.093435094 0.03606425 0.09088772
0.10075436 -0.035627607 0.07888178 -0.13478754 0.12493342 -0.103635296 0.017243335 -0.07616834
-0.10244134 0.15198885 -0.07735264 -0.011534229 0.007163572 0.17842747 0.04430855 0.026106741
0.02390444 -0.08757097 -0.06574233 -0.113278426 0.18838327 0.09247611 0.09771524 0.08338971
0.122835495 -0.0897338 0.019818392 0.078575484 0.119801044 -0.019773245 -0.04007436 -0.014796646
0.14705501 0.12799722 -0.17733099 -0.3103877 -0.017379701 0.058782678 -0.104999095 -0.17801355
-0.054322418 -0.22268096 0.124253854 -0.0901459 -0.41074115 -0.22353627 -0.049837537 -0.09113354
0.042466424 -0.16589667 -0.18611938 -0.1658683 -0.15304248 -0.082086995 -0.18328132 -0.099788025
-0.3102014 -0.0055098347 0.060743097 -0.43952796 -0.22428305 -0.033980887 -0.18224669 -0.5937088
0.15856797 -0.55828184 -0.18366165 -0.1266682 -0.32682785 -0.24164687 -0.059213858 -0.16029882
-0.07723248 -0.418813 -0.4533428 -0.49115604 -0.25031656 -0.20475574 -0.2789356 -0.109253794
-0.10396214 -0.12849264 -0.055559717 -0.33237782 -0.14664705 -0.06441685 -0.048767146 0.044858735
-0.09645231 0.1611271 -0.16661625 -0.10103985 0.013810456 0.14545216 -0.0076266686 0.10785642
0.11677752 0.13082457 0.06740328 0.022218503 0.0009223436 -0.040498972 -0.019308979 -0.07632062
-0.071713 0.08090794 -0.13227496 -0.106643975 0.019547828 0.020671288 0.13966268 -0.048325572
0.14557129 -0.041649338 -0.022025073 -0.075822495 0.15934986 0.14128558 -0.122681096 0.04752663
-0.03537147 0.036981594 -0.07073504 0.15553036 -0.114602 0.07525294 0.0018512016 0.058293957
0.12176325 -0.10300378 0.047380388 0.116159655 0.0038854613 -0.019892585

back_gru.weight_ih_l0 f4 [150, 2]
00000000: 127f 4bbe 845c 973d a8ce d93d 464c e03c
00000010: 0167 a9bb 3b0b 00be dd4d f7bd b4b2 11be
00000020: d7a8 da3d 9a28 393d 08c8 5dbd ba8e bd3d
00000030: 8fcd debd 36ab f0bc 3f0f a3bc 7dde 87bd
00000040: a9d8 ac3d edc2 2dbe a6ed 06bd 99cb eb3d
00000050: cbe4 35bd b4fb eebd ccec e3bd 0df0 42bd
00000060: b288 00be e023 073e cc9a 1abe 4fc9 71bd
00000070: 9ec6 afbd 4245 ffbd 0364 3c3c 2649 58be
00000080: 37ba 833d f0cd d93d 26ec 2b3c 1e28 83bd
00000090: 98de 7abb 2f08 673c 5a67 0c3d c89a 733d
000000a0: 21d1 57bd c584 623d e8de 703d 13bd 0abb
000000b0: 03e1 833d b60c 9bbe 55f4 39be 1ff0 6c3d
000000c0: 414b 8d3c 93fd 30bd 0a2b 203e b311 c1bc
000000d0: 783b cabd 8e13 89bd e456 cabd 1dbb e6bd
000000e0: 766e b23c fcae 99bc 3f5d 69bd c4bd e6bc
000000f0: 023f b2bd 858c 963d 1568 2ebe 7b13 9e3d
00000100: 2166 56be 90bd 68be b6ad 48be ace6 983d
00000110: 2c86 a4bd 2b29 d6bc 6a3d 533d 206f 8eba
00000120: b353 3bbd e8fc d73c f4ee 3bbd ed85 f7bd
00000130: b1f4 ff3a 2565 f53d d57b a4bc 5f43 533e
00000140: 11aa 89bd 79bf 3a3e b63f 94bd 06d4 bc3d
00000150: 1160 26be b65f ed3d 4dfe d03d 0f1c 49be
00000160: 027a b9bd 9da1 31be da76 10be 9a20 68bd
00000170: 6eeb 7dbd 2f5d 12be c64c 8e3c d11c 92bd
00000180: 333b 5cbe fdce d83d c99a 093e f1f6 9d3d
00000190: c55a 84be fdb0 d4be 5221 d1bd c200 bb3d
000001a0: 58bf 33be e725 17be 9ec3 ee3c d807 4c3d
000001b0: ec11 c7bd 71fa f03d ff07 3cbd fde3 41bd
000001c0: 8ea0 0bbe 0e59 643e b9a3 5fbe a4f5 42be
000001d0: 4d77 30be 0ea0 89be 25db 61be 295f 73be
000001e0: 4543 7abc 972d ed3d 5212 01be d25b 6fbe
000001f0: abb4 4dbe dd62 f63d 26b4 3abd 4a51 4cbc
00000200: 5a5c 69be e412 29be 28de 66be f79a c3be
00000210: 76fc de3d d2cc 75bb 1dc9 a03c 968b 9cbe
00000220: 7b15 f8be ce84 08bf 94ce 553c 0bf5 0b3e
00000230: fcc0 cabe 5e61 d3be 82cc 86bd b4b4 b93c
00000240: f555 c4be 4589 b4be 978b 8ebd ec56 85bd
00000250: d8ab 17be aea0 d33d d4b4 fbbe 849d 3fbf
00000260: a6da e5bd 471e b1bd af5f 07bf fac0 d8be
00000270: ea6d 153c 43c8 cfbd 39b8 bbbd 574c 6cbe
00000280: 21d0 54be db9a 87bd b0ff 3bbe 39d2 d23d
00000290: da16 8dbd 7595 403e 966e 1fbf 40ff 0bbf
000002a0: d48f 283e d07e 603e ed2d e8be 97da 75be
000002b0: 8200 803d d756 8abe 69c2 743d 9ab9 07be
000002c0: 116b b7bd 2fdc 6dbe f481 47be ea9e 9ebe
000002d0: 53fe b9bc b787 aebe 7b3e a83c 2b69 a2be
000002e0: cf38 7f3d 4eec 8fbd 0e89 e8bc 6c90 97be
000002f0: 818d 73be 942f 68be 2ae4 4dbe 5d00 6abd
00000300: f03f dcbe ca9d d1be 1897 80bd d6d1 8ebc
00000310: 6a59 dcbc 1d97 463e 1b76 7fbc 2edd d43d
00000320: 7a0d c23d b0bc 22be 39ef 3d3e 3b68 0c3c
00000330: da69 9e3b 84b1 3e3e bd11 6d3d 698c 143c
00000340: ece8 51be ab36 913d 71b6 21be a1ab bb3d
00000350: b6e1 533e 9062 083d 17bf 573e b6a1 14be
00000360: a0bc 4cbd 9733 86be 458a 86bc 47ba 3bbe
00000370: 71ce 19be 77a3 1e3d a5d7 9b3d 40f8 0e3e
00000380: b69c 40be 06c0 ce3b 36ba 7fbd a8b9 293c
00000390: d58b 333e fddd 1bbe a7dd 163d 851e 3dbe
000003a0: 52a0 2ebe e319 6abd 5a60 12be b6cd 6cbe
000003b0: 2176 e13d 0db7 2bbe 0032 f3bd 83bb 033d
000003c0: 7894 e7bd 962a 583e ce88 d2bd 4717 23be
000003d0: a8cb 583e b870 66be b33d ebbd 6427 a73c
000003e0: e55f ff3d 9ea4 b3bd e41d 2c3e f62e 7fbe
000003f0: c81f 03bd 775a d2bd dd0e 233e 1d92 44be
-0.19872692 0.07390693 0.1063512 0.02738012 -0.0051697497 -0.12504284 -0.12075398 -0.14228326
0.10676735 0.045204736 -0.054145843 0.092557386 -0.10879051 -0.029378515 -0.01990473 -0.06634233
0.08439762 -0.1696889 -0.032941483 0.115134425 -0.044407647 -0.11669102 -0.1112915 -0.04759221
-0.12552145 0.13197279 -0.15098113 -0.059029873 -0.08582805 -0.12464382 0.011498454 -0.21121654
0.06432002 0.106349826 0.010493314 -0.06404136 -0.003827965 0.014101072 0.03427825 0.059473783
-0.052689675 0.0553024 0.05880633 -0.0021169826 0.06439402 -0.30283135 -0.18159612 0.057846185
0.017247798 -0.043210577 0.15641418 -0.02356801 -0.09874624 -0.06693183 -0.09879854 -0.11266158
0.021781188 -0.018760197 -0.056973692 -0.02816666 -0.08703424 0.07351021 -0.17031892 0.07718559
-0.20937397 -0.22728562 -0.19597515 0.07465872 -0.08033404 -0.026142677 0.05157224 -0.0010866858
-0.04573412 0.026365712 -0.04588218 -0.12086091 0.001952788 0.119821824 -0.020078579 0.20631169
-0.06721891 0.18237104 -0.072387144 0.09220128 -0.16247584 0.11590521 0.10204754 -0.1963961
-0.09056474 -0.17346807 -0.14107838 -0.056671716 -0.0619921 -0.14293359 0.017370593 -0.071344025
-0.21506958 0.10586355 0.13437952 0.07713116 -0.25850502 -0.4154128 -0.102114335 0.09131004
-0.1755346 -0.14760552 0.029146012 0.049812168 -0.09720215 0.11766518 -0.045906063 -0.047336567
-0.13635466 0.22299597 -0.21839799 -0.19039017 -0.1723301 -0.26879925 -0.22056253 -0.2376677
-0.015274827 0.11580961 -0.12604645 -0.2337487 -0.2008845 0.120305754 -0.04558196 -0.012470553
-0.22789136 -0.16511112 -0.22545683 -0.38204166 0.10887997 -0.0037506116 0.019627148 -0.30575246
-0.48453888 -0.53327644 0.01304974 0.13667695 -0.3960036 -0.41285223 -0.065819755 0.022669174
-0.3834683 -0.35260978 -0.069602184 -0.0651072 -0.14811647 0.103333816 -0.49161398 -0.74849725
-0.112233445 -0.08648353 -0.52880377 -0.4233473 0.009120444 -0.10145619 -0.09165997 -0.23075996
-0.2078252 -0.06621333 -0.18359256 0.10294003 -0.06889124 0.18807013 -0.62278116 -0.54686356
0.16461116 0.21923375 -0.4534754 -0.24009167 0.06250097 -0.2701938 0.059755716 -0.13254395
-0.08955968 -0.23228525 -0.19483167 -0.30980617 -0.022704279 -0.34087917 0.020537606 -0.31720862
0.062310036 -0.070274934 -0.028385665 -0.29602373 -0.23784448 -0.226744 -0.20106569 -0.057129253
-0.4301753 -0.40940696 -0.06278819 -0.017434042 -0.026898105 0.19393583 -0.015592123 0.10393749
0.09475227 -0.15892291 0.18548287 0.008569772 0.004834396 0.18622404 0.057878245 0.0090666795
-0.20499009 0.07090505 -0.15792252 0.09163595 0.2069157 0.03329712 0.21068989 -0.14514813
-0.049984574 -0.26211235 -0.016423354 -0.18332778 -0.15020157 0.03873011 0.0760949 0.13961887
-0.1880978 0.006309512 -0.062433444 0.010359205 0.1753381 -0.152214 0.036832478 -0.18468674
-0.17053345 -0.057153594 -0.14294568 -0.23125347 0.110088594 -0.16769047 -0.11874771 0.032161247
-0.11307615 0.21109995 -0.1028 -0.15926848 0.21171439 -0.22503936 -0.114863776 0.020404525
0.12469462 -0.087716326 0.16808277 -0.24920258 -0.03201273 -0.10271161 0.15923639 -0.19196363

back_gru.weight_hh_l0 f4 [150, 50]
00000000: cfd3 a53d b54a febd 58e1 f93d 9d2b eeba
00000010: 8786 b73c 12e2 033c e78d 55bc 7c65 08bd
00000020: 600f b6bd 027a 793d 0438 7c3d 113e 09bc
00000030: f327 533c 293e 753d 1d07 bc3d 9ee3 8abd
00000040: 081e d2bd 2af2 1a3e 33ac 463e d039 313e
00000050: c303 a7bd 2515 9a3d c6d1 cfbd cecf f13d
00000060: 3ec0 5ebd a1c5 38bd 01d2 b5bd b772 593b
00000070: 5494 16bd 5e00 d7bd 8c4b 4c3d 57d7 d4bd
00000080: 3192 3d3c 3f56 433d 77e0 0bbe 3e12 1c3e
00000090: dc53 353d f300 1dbe b57e 94bc 1a7a edbd
000000a0: 5239 c93d b678 de3d 1378 243e 622f 86bc
000000b0: 05cc ea3b 16df e43d f9a7 4e3c 2a9e 8ebc
000000c0: b718 0abd b5f5 be3c 136c a5bd 5747 0d3e
000000d0: caeb 5fbd c033 1bbc 6a4a a2bd f17e a7be
000000e0: 8f7c e63b c1e4 9a3d 7573 14bc 3f38 54bc
000000f0: f397 67bd f857 a3bc 3e6a 1ebe 6420 32be
00000100: 623d 92bc 54fa 423e 2036 2fbd 87e9 8d3d
00000110: 76f8 aa3e 4785 bd3c 08fb 18be 1b9e 25be
00000120: b1fe 973e 7a34 31be 809a af3d cbaf 3c3e
00000130: c976 e03d 46a0 963e fb86 10bd 5fd6 e73d
00000140: 98a8 bb3a 193d f63c 7932 a1bd 106c 253e
00000150: e01f 86bc 9410 3ebd 53ee 73bd d70f 293d
00000160: 0740 fb3d 8d2c e6bd f500 c5bd 9605 42bc
00000170: ac55 013e c361 33be 3420 ad3d 50bb 1abc
00000180: e695 87be 743a 29be 45a3 5b3e 8d94 78bd
00000190: c398 96bb 4228 2f3e c09a 4fbc eae0 46bd
000001a0: b491 1ebd ba23 1fbe bcda 1e3e 669e 53bc
000001b0: 89f4 b8bc 9446 1dbd 6a4c 123d eb9b b0bb
000001c0: c7e4 25bd f956 4dbe 252d 09bb 63b1 75bd
000001d0: 2eab 9fbd e743 55bd 27b0 5e3c 2d16 d13d
000001e0: 70bc 87bc 236e eabb 4b95 783d 745f c1bc
000001f0: a19b 4fbd 91d7 043e 94bd be3d 188d 363d
00000200: e072 dabc 3ca1 423d a1c0 c23d b295 913d
00000210: 5d72 38bd 0f0c dd3d a5bd 5bbd d995 bd3c
00000220: 7e03 1e3d 5940 99bd 7334 b03d 17c2 b93d
00000230: c3c7 babc 138d 1d3e f885 fcbc 4895 1bbe
00000240: a684 a3bc 6dd4 1b3e 6e0a 02be 13ff 16be
00000250: 70c1 683d 00e4 03be 9429 93bd e1d2 c63d
00000260: d096 9d3d 2dd0 9d3d 9d7a 89bd c2c0 19be
00000270: c224 fc3b 4a79 8d3d 1634 6a3d f6ac 11be
00000280: dd79 683d 62df 07bd 8ce4 d83d 42d7 833d
00000290: 1982 b23c 7ff1 a8bd eeb2 3cbc 8355 df3d
000002a0: 1d4d 2d3e a1aa df3d af5a 8f3d 6f91 6b3d
000002b0: 9ec3 343d 361f eb3d 16d1 813d 7748 e23c
000002c0: c3d0 d43a cdc5 9bbd c49a cb3d 9f44 8c3d
000002d0: 4c87 d33d 9c06 453d 44ea d7bd 7899 a83d
000002e0: 67ed d83d 1f63 35bd db00 623d bb27 71bd
000002f0: c8c7 1abe 07a5 bebc 4469 edbc 6845 9dbd
00000300: 650b e63d bf29 86bc 1601 83bd 9923 92bd
00000310: 8b5e a9bd 2eb8 013e 7a9f f9bc 7b58 0ebe
00000320: 249a 03bd 791d 94bd 6eb7 bd3c 7f7d bc3b
00000330: c6dc ca3d ba1b 7fbd 3b8e 9d3b d252 643c
00000340: 724d 05bd 26f8 09be cb00 c9bd f52d a53c
00000350: a7fa 093c cd86 393d 1e39 12bd 8ede 38be
00000360: 8350 15bd 9b92 aa3d d6a9 06be b630 6f3d
00000370: 61fc 613c e449 053e 0ce3 01bd 6534 48bc
00000380: 7cce b03d 9081 0d3e 0e08 bebd ab5c b8bc
00000390: 9888 abbd a07f 8a3d e074 debd 3805 023e
000003a0: e954 89bc 8d89 fc3d d68a e8bd 1f3f d7bc
000003b0: 327a 673d 9467 afbd 33a2 e3bb c765 e8bd
000003c0: 0268 143d c2ed 9e3c d034 27bc 3999 babd
000003d0: b844 38be 1b1e 2d3d 188b 97bd 5739 683c
000003e0: c5d5 b2bd a43a 86bc 20e5 c1bd 7af0 fa3c
000003f0: 6820 fc3c 9b39 ef3d 75e2 4f3c c0fe 2fbd
0.0809704 -0.12416593 0.12201184 -0.0018170957 0.022403015 0.008049505 -0.01303432 -0.033299908
-0.08889651 0.06090737 0.06157686 -0.008376614 0.012887943 0.059873734 0.09181044 -0.06781696
-0.10259634 0.15131441 0.19401626 0.1730721 -0.08155014 0.07523564 -0.10147433 0.11807214
-0.054382555 -0.04511035 -0.08877946 0.0033179948 -0.03676255 -0.10498117 0.049876735 -0.10392635
0.011570499 0.047689673 -0.13659845 0.15241334 0.044269428 -0.15332393 -0.018126825 -0.11595555
0.09825386 0.108628675 0.1606143 -0.016380016 0.0071654343 0.11175363 0.01261329 -0.017409403
-0.033714976 0.023310522 -0.08077254 0.13796745 -0.054668225 -0.009472787 -0.079243496 -0.32714036
0.0070338915 0.075631626 -0.00906073 -0.012952863 -0.056541394 -0.019939408 -0.15470216 -0.17395169
-0.017851535 0.19040805 -0.042776227 0.069293074 0.33392686 0.02313484 -0.14939511 -0.16173594
0.29686502 -0.17305174 0.085743904 0.18426435 0.109601565 0.29419154 -0.035284977 0.11320185
0.0014317213 0.03005843 -0.07870955 0.16154504 -0.016372621 -0.04640253 -0.059553456 0.04127487
0.122680716 -0.11238966 -0.09619323 -0.011842152 0.12630337 -0.17517762 0.08453408 -0.009444073
-0.2648155 -0.16526204 0.21449001 -0.060688544 -0.0045958473 0.17105201 -0.012671173 -0.04855434
-0.038713172 -0.15540972 0.15513128 -0.012916183 -0.022577541 -0.038397387 0.035717405 -0.0053896806
-0.040501382 -0.20052709 -0.002093145 -0.059983622 -0.07796322 -0.05206671 0.013591803 0.10209308
-0.016569346 -0.0071542426 0.060689252 -0.023605086 -0.05068553 0.12972857 0.09313503 0.04456815
-0.026666105 0.047517046 0.09509397 0.0710863 -0.04503094 0.107933156 -0.053647656 0.023142742
0.03857755 -0.074829765 0.08603754 0.09070223 -0.022800332 0.15385847 -0.0308256 -0.15193665
-0.019960713 0.15217753 -0.12699291 -0.1474574 0.0568251 -0.12879944 -0.07185665 0.09708191
0.07694781 0.07705722 -0.0671284 -0.15014938 0.0076948116 0.069079 0.05717858 -0.14226136
0.056756843 -0.03317202 0.10590467 0.064375415 0.021790551 -0.08249187 -0.01151727 0.10904982
0.16923948 0.10921217 0.069997184 0.057511743 0.044131868 0.114805624 0.06338708 0.027622445
0.0016236532 -0.07606087 0.099416286 0.06849026 0.1032854 0.048102006 -0.105427295 0.08232397
0.10592156 -0.044283982 0.055176597 -0.05887578 -0.15115273 -0.02327205 -0.028980859 -0.07679254
0.11232642 -0.016377328 -0.063966915 -0.07135696 -0.08269986 0.12667915 -0.030471552 -0.1390094
-0.03212942 -0.07232184 0.023158755 0.005752265 0.099053904 -0.0622823 0.004808215 0.0139357615
-0.03254456 -0.13473567 -0.09814604 0.020163516 0.008421577 0.04529457 -0.035699002 -0.18053648
-0.036453735 0.08328744 -0.13150725 0.058396064 0.013793082 0.13016468 -0.03171067 -0.012219523
0.08633134 0.13818955 -0.0927888 -0.022505125 -0.083756626 0.06762624 -0.10862136 0.12697303
-0.016764121 0.12330923 -0.11354606 -0.026275216 0.05651302 -0.08564678 -0.006946826 -0.113475375
0.036232002 0.019400481 -0.010205463 -0.09111256 -0.17994964 0.04226504 -0.07399577 0.014173827
-0.087321796 -0.016385384 -0.0946753 0.030632246 0.030777171 0.11680909 0.012688269 -0.042967558
