NAOMI/model/model_discrim.pth (torch, 270684 bytes, 7 tensors)

gru.weight_ih_l0 f4 [384, 1]
-0.8185437 -0.72973454 -1.8910445 -1.1862519 -0.5824828 -0.445936 -0.31689107 -0.9295451
-2.3568282 -0.5868896 -0.7856147 -0.3397048 -0.5112969 -0.092538126 -1.0734575 -0.33124456
-0.592851 -1.2340659 -0.37817124 0.182125 -0.7849102 -0.9261509 -1.0406843 -0.7136708
-2.4410326 -0.28192794 -0.14062317 -1.4036694 -0.5151499 -0.26723728 -0.029072078 -1.5357479
-0.9157098 -2.1772346 -2.60845 -0.5181699 -2.4100425 -0.13040231 -2.3611295 -0.05322124
-2.5484104 -1.4883152 -0.9409157 -0.57237697 0.567078 -1.1763711 -0.75016135 -1.499793
-0.20254366 -1.9785973 -2.628563 -0.6641306 -1.1719248 -0.16222918 -0.5474695 -0.60046345
-0.1546345 -0.78349245 -0.69279885 -0.7394564 -0.86847275 0.52539504 -0.38770148 -0.5654359
-2.0234861 -0.59200776 -3.8446305 0.025562566 -2.686867 -2.5503466 -1.4893461 -0.34467503
-1.180774 -0.12247234 -0.9962276 -1.1620319 -0.36485565 -0.41723102 -0.29601747 -0.38973787
-0.38262075 -0.18438032 -0.6173544 -0.2522896 -2.3549142 -0.4516655 -0.59623754 0.51213926
-0.18529771 -0.3919844 -0.5809394 -1.5085986 -0.7793735 -0.054635864 0.53809726 -0.4973478
-0.38145894 -0.4078433 -0.64027226 -0.5535152 -1.0803664 -0.8434025 -2.3923028 -0.98695016
-2.5005484 -0.33373582 -0.4684198 -0.96115625 -0.5606634 -1.8960422 0.14337072 0.06287796
-2.105121 -0.55002874 -0.5696232 -1.3363369 -0.5922663 -0.7108418 -0.5958319 -1.2031053
-0.36061734 -0.27541986 -0.87870663 -0.31306586 -0.4681418 -0.3963352 -2.3134735 -0.4545183
1.2046372 0.78147966 -0.054913778 1.009206 1.4222335 0.6501901 0.24201235 0.5663662
-0.95836204 1.5596886 0.5164447 0.14141966 1.6968545 0.1726372 1.2703089 0.6227909
1.1859963 0.71546865 0.33484605 -0.4078007 0.58345085 1.5822341 -1.6454446 1.395193
-0.21826299 -0.5183143 0.88568 1.2542206 0.037490856 0.3015389 0.67847383 -0.23559777
1.5227743 -0.8860633 -0.59808564 1.2294328 -0.38131192 0.16270845 0.47508597 -0.2548311
0.37708744 1.048941 1.4323401 0.58931583 0.8748337 1.3459427 0.23231374 -0.051160794
0.33116612 0.04946814 -0.497944 1.5604396 0.5591579 0.23447402 -0.74437165 0.6429539
0.57797694 1.4699601 0.9742641 1.6179336 1.2780595 1.3737873 0.588353 0.07057331
0.87164587 1.1536422 -0.5958894 0.6054444 -0.4832195 -0.81936926 1.453949 0.54779
0.19412987 -0.008156407 0.19285607 1.2160044 -0.5158903 -0.28904605 0.4720774 -0.71445954
0.7303363 -0.25328815 0.49462655 1.4570138 -0.43827 1.3298234 0.5600374 -0.037648898
1.2327737 0.7584525 0.7387228 1.0024487 0.7653614 0.24295126 -1.4417307 0.26009935
0.5172515 -0.29696742 0.7196219 -0.2976 -0.57262284 1.6722987 -0.6483568 1.3275214
-0.8315528 -0.06162274 0.7803955 1.1415049 0.9277971 0.072695374 -0.0851047 -0.4541904
-0.40298724 1.3353779 0.101139486 0.83785266 0.99419117 0.64701974 0.113639876 1.184381
1.0126239 -0.24807619 0.29361758 0.89048564 0.92295516 0.381701 -0.08362672 1.0769567
00000000: 148c 51bf e2cf 3abf bf0d f2bf 1ad7 97bf
00000010: 981d 15bf b951 e4be 8c3f a2be abf6 6dbf
00000020: 46d6 16c0 663e 16bf 0c1e 49bf caed adbe
00000030: 5be4 02bf a184 bdbd 0e67 89bf e398 a9be
00000040: 15c5 17bf dff5 9dbf a99f c1be fa7e 3a3e
00000050: e0ef 48bf 3a18 6dbf 2535 85bf 21b3 36bf
00000060: e139 1cc0 dc58 90be 85ff 0fbe 70ab b3bf
00000070: dde0 03bf 53d3 88be 9128 eebc 6393 c4bf
00000080: f56b 6abf d057 0bc0 d8f0 26c0 c8a6 04bf
00000090: 233e 1ac0 2f88 05be bf1c 17c0 84fe 59bd
000000a0: 2819 23c0 1d81 bebf dadf 70bf 4c87 12bf
000000b0: 062c 113f 5493 96bf 930a 40bf 38f9 bfbf
000000c0: 9b67 4fbe ad42 fdbf 603a 28c0 7704 2abf
000000d0: a201 96bf 681f 26be f626 0cbf f9b7 19bf
000000e0: 8258 1ebe f692 48bf 445b 31bf 044d 3dbf
000000f0: 3b54 5ebf 4a80 063f cf80 c6be 68c0 10bf
00000100: cc80 01c0 d28d 17bf 6d0e 76c0 9668 d13c
00000110: a1f5 2bc0 e138 23c0 e5a2 bebf 3f79 b0be
00000120: 9a23 97bf c7d2 fabd c608 7fbf 76bd 94bf
00000130: 5cce babe 4e9f d5be 9a8f 97be b98b c7be
00000140: dee6 c3be 32ce 3cbe f00a 1ebf 1a2c 81be
00000150: eab6 16c0 b340 e7be 06a3 18bf 8f1b 033f
00000160: afbe 3dbe 2eb2 c8be 72b8 14bf c219 c1bf
00000170: 0685 47bf dbc9 5fbd bec0 093f 5fa4 febe
00000180: 964e c3be d6d0 d0be e2e8 23bf 2cb3 0dbf
00000190: 7249 8abf 3ae9 57bf 7d1b 19c0 c4a8 7cbf
000001a0: fc08 20c0 6cdf aabe b8d4 efbe 560e 76bf
000001b0: a387 0fbf 83b1 f2bf c6cf 123e 29c6 803d
000001c0: 4dba 06c0 afce 0cbf d3d2 11bf 160d abbf
000001d0: c49e 17bf baf9 35bf 7088 18bf 5bff 99bf
000001e0: d6a2 b8be d503 8dbe ebf2 60bf 2b4a a0be
000001f0: 48b0 efbe 73ec cabe f30f 14c0 9fb6 e8be
00000200: 8d31 9a3f 0d0f 483f 45ed 60bd aa2d 813f
00000210: bf0b b63f dc72 263f 16d2 773e 60fd 103f
00000220: 3757 75bf e0a3 c73f b835 043f 51d0 103e
00000230: 8732 d93f cec7 303e 7b99 a23f 396f 1f3f
00000240: bace 973f f428 373f f170 ab3e 41cb d0be
00000250: 095d 153f a686 ca3f ee9d d2bf af95 b23f
00000260: 5580 5fbe 3fb0 04bf edbb 623f 4d8a a03f
00000270: 0390 193d 4f63 9a3e 76b0 2d3f 8b40 71be
00000280: 45ea c23f 0bd5 62bf 241c 19bf 0e5e 9d3f
00000290: 513b c3be 0b9d 263e 783e f33e 3979 82be
000002a0: 9b11 c13e b343 863f ec56 b73f 67dd 163f
000002b0: 1af5 5f3f da47 ac3f a7e3 6d3e fb8d 51bd
000002c0: 9b8e a93e 1b9f 4a3d 84f2 febe 7cbc c73f
000002d0: f924 0f3f f519 703e 248f 3ebf a098 243f
000002e0: 4cf6 133f a727 bc3f 5f69 793f 7318 cf3f
000002f0: 7497 a33f 43d8 af3f 4d9e 163f bd88 903d
00000300: 2f24 5f3f 8caa 933f 358c 18bf 67fe 1a3f
00000310: 8c68 f7be 2fc2 51bf 001b ba3f f73b 0c3f
00000320: fbc9 463e 73a2 05bc 107c 453e 08a6 9b3f
00000330: 6311 04bf d8fd 93be 21b4 f13e d2e6 36bf
00000340: 52f7 3a3f fcae 81be b13f fd3e 6e7f ba3f
00000350: ed64 e0be a737 aa3f 9c5e 0f3f bb35 1abd
00000360: 87cb 9d3f f129 423f f01c 3d3f 3d50 803f
00000370: baee 433f 37c8 783e a28a b8bf be2b 853e
00000380: 986a 043f 1d0c 98be 2439 383f 075f 98be
00000390: 6997 12bf e20d d63f b6fa 25bf 39ec a93f
000003a0: a5e0 54bf 2068 7cbd 00c8 473f d51c 923f
000003b0: 1c84 6d3f 50e1 943d 5f4b aebd a58b e8be
000003c0: 5854 cebe aaed aa3f 3822 cf3d 837d 563f
000003d0: 5083 7e3f 16a3 253f 06bc e83d cc99 973f
000003e0: a99d 813f af07 7ebe 0b55 963e def6 633f
000003f0: ca46 6c3f 506e c33e 7c44 abbd b8d9 893f

gru.weight_hh_l0 f4 [384, 128]
-1.0950401 -0.2017114 -0.14852607 0.43318433 -0.44688812 0.9958369 0.27565292 -0.65103346
-0.5237443 0.13668367 -0.3264948 0.4830423 0.022724148 0.014752419 0.4343872 -0.13011791
-1.0103352 1.7046272 0.039559267 0.27854514 -0.06895543 -0.644438 -0.054521218 -0.36423653
-0.40589178 1.6686358 1.8628985 -0.0003398503 0.05923473 -0.9562283 0.38672072 -0.43533498
-0.054949917 -0.45633122 -0.3986031 -0.018950427 0.8142385 0.13497639 0.31670034 0.54742616
-1.3030965 0.3259531 -1.0206872 0.47546306 -0.51343644 0.3137324 0.46659496 0.7017895
-0.26456863 0.38487563 -0.63849306 -1.6084325 -0.22605126 -0.031198353 -0.3260376 -0.1314303
0.31749383 0.37445655 2.3552752 -0.8179621 1.3864526 0.89125 -0.39402682 -0.78136003
-0.73520434 0.83750564 0.33812305 -0.20942476 0.30795014 -0.47258973 0.10792724 -0.20253146
-0.648849 -1.2027297 1.983294 -1.0327523 0.1950037 -0.26690403 -0.50341976 0.06905078
0.33637753 0.024120227 0.24335192 1.1756101 -0.6059191 -1.069481 0.5018224 -0.6597343
0.31815624 0.47065303 -0.060685378 0.19800316 0.24364941 0.54620075 -0.27394685 -0.6361633
-0.6712253 -0.46524817 -0.6372512 0.16908827 0.7916135 0.82568824 0.6719034 0.7754918
-0.10318778 1.4188812 0.24801627 0.13763814 -0.2012982 -0.5827064 0.62600183 0.06906572
0.26525474 0.44266832 -1.1182624 1.0725847 0.72394854 0.44896975 0.50861585 0.036646552
0.18196493 0.15981814 0.1374232 1.0523275 0.87722915 -1.0613034 -0.35398367 -0.4853714
-1.0522112 1.4881588 0.76119196 0.6619372 -0.36083096 -0.04064112 -0.052028563 -0.1200616
0.25856495 -0.43641603 -0.010775428 0.052437138 -0.4801779 0.9959441 -0.21040583 -0.16248102
-0.7085325 -0.32012555 -0.09808693 1.0263844 0.6995389 0.034628406 0.6228206 -0.30295944
1.2068044 -0.08984266 -0.6774874 -0.42156854 0.45042476 -0.13669105 0.39536408 -0.2647175
0.720582 0.2169897 0.5831132 1.0149431 0.4476006 -0.07117092 0.15414211 0.48661393
0.794483 -0.17322573 0.0027602739 0.3443446 -0.82126534 0.40290594 0.78620166 -1.0528437
0.730291 0.03590262 0.32406193 -0.15330198 -0.48407012 0.30352795 1.0784049 0.53498906
0.8452247 -1.6305486 0.58033484 -0.41162613 1.1323241 -0.6332885 -0.8512827 0.9028887
-0.21381103 -0.6012619 -0.22834663 0.43517435 -0.2553341 -0.64649695 0.41661957 0.84657085
-0.15257278 1.171984 0.46771416 0.1674999 0.0015161546 0.80675614 -0.32832822 -0.09675278
1.8963907 -0.3759734 -0.86841774 0.44713587 -0.556138 1.1173143 -0.07803757 0.019195551
0.4617925 0.027493285 -1.0290672 0.52054906 0.46942353 0.036298465 0.9333167 -0.73405844
0.24352042 -0.7267628 0.91052574 -0.6938286 -0.5457585 0.21989878 -0.012699546 -0.0052618957
0.01637538 -0.14530252 0.7509107 0.63165253 -0.24298352 0.36893806 -0.7036777 0.75984836
0.6257816 0.20846581 -0.9019239 -0.47368708 0.24293615 -0.050441023 -0.9685474 1.0189472
0.3888587 -0.95309854 0.20968397 -0.597588 0.47735965 0.4902264 0.3950527 -0.06213912
00000000: 462a 8cbf 6f8d 4ebe 3817 18be 56ca dd3e
00000010: 85ce e4be 2bef 7e3f 6122 8d3e 21aa 26bf
00000020: 1b14 06bf cef6 0b3e 542a a7be 5251 f73e
00000030: fe27 ba3c 21b4 713c 0068 de3e a13d 05be
00000040: aa52 81bf 3931 da3f e608 223d 789d 8e3e
00000050: 8138 8dbd e4f9 24bf a451 5fbd 367d babe
00000060: 0cd1 cfbe dc95 d53f 7573 ee3f ef2d b2b9
00000070: 1ea0 723d 61cb 74bf 4200 c63e 3ae4 debe
00000080: 2a13 61bd 3fa4 e9be b515 ccbe ed3d 9bbc
00000090: ef71 503f 4037 0a3e 8c26 a23e 1f24 0c3f
000000a0: decb a6bf 53e3 a63e e1a5 82bf e56f f33e
000000b0: 9270 03bf 88a1 a03e 89e5 ee3e 7aa8 333f
000000c0: 8a75 87be 6b0e c53e 4874 23bf 1ee1 cdbf
000000d0: fb79 67be b093 ffbc 66ee a6be aa95 06be
000000e0: 8d8e a23e c5b8 bf3e d4bc 1640 f765 51bf
000000f0: 4777 b13f f628 643f e2bd c9be 3607 48bf
00000100: 5a36 3cbf c566 563f 771e ad3e 7273 56be
00000110: a4ab 9d3e 48f7 f1be f508 dd3d 6864 4fbe
00000120: f81a 26bf 0cf3 99bf 94dc fd3f 3a31 84bf
00000130: 0daf 473e a5a7 88be 1ee0 00bf 7f6a 8d3d
00000140: ad39 ac3e c897 c53c 3f31 793e 647a 963f
00000150: 841d 1bbf c1e4 88bf 6f77 003f 59e4 28bf
00000160: 60e5 a23e 6ff9 f03e 3b91 78bd 57c1 4a3e
00000170: 3b7f 793e d0d3 0b3f c342 8cbe 99db 22bf
00000180: 6cd5 2bbf 0235 eebe e522 23bf 7a25 2d3e
00000190: 2fa7 4a3f 4e60 533f dc01 2c3f a186 463f
000001a0: 1d54 d3bd e69d b53f faf7 7d3e 03f1 0c3e
000001b0: 1e21 4ebe 3f2c 15bf a841 203f 5472 8d3d
000001c0: 78cf 873e 6ca5 e23e 3923 8fbf 754a 893f
000001d0: b154 393f 5ddf e53e a634 023f b21a 163d
000001e0: 0455 3a3e 5ea7 233e abb8 0c3e abb2 863f
000001f0: 1792 603f cad8 87bf 593d b5be 9a82 f8be
00000200: dbae 86bf fd7b be3f 7add 423f b774 293f
00000210: d6be b8be 4e77 26bd e71b 55bd dbe2 f5bd
00000220: a062 843e ec71 dfbe 6c8b 30bc 53c8 563d
00000230: e1d9 f5be 31f6 7e3f a074 57be 6d61 26be
00000240: 6362 35bf 7fe7 a3be cde1 c8bd 9060 833f
00000250: fb14 333f 84d6 0d3d 2c71 1f3f 801d 9bbe
00000260: 9178 9a3f 6eff b7bd d06f 2dbf d5d7 d7be
00000270: 139e e63e bdf8 0bbe 296d ca3e 0d89 87be
00000280: 1078 383f 8c32 5e3e e846 153f a8e9 813f
00000290: e82b e53e 0fc2 91bd 6ed7 1d3e 7625 f93e
000002a0: 3d63 4b3f 1662 31be b6e5 343b ef4d b03e
000002b0: 723e 52bf b049 ce3e 8344 493f 95c3 86bf
000002c0: 5af4 3a3f a00e 133d 72eb a53e 32fb 1cbe
000002d0: 0ad8 f7be 0468 9b3e 2c09 8a3f 0bf5 083f
000002e0: a560 583f d1b5 d0bf d390 143f a9c0 d2be
000002f0: ffef 903f 321f 22bf aaed 59bf b723 673f
00000300: 47f1 5abe 4dec 19bf b3d3 69be 2ccf de3e
00000310: 27bb 82be d380 25bf 294f d53e deb8 583f
00000320: 0a3c 1cbe 9203 963f 3b78 ef3e 1885 2b3e
00000330: b5b9 c63a 9287 4e3f a31a a8be 5226 c6bd
00000340: eebc f23f 967f c0be a050 5ebf feee e43e
00000350: 0f5f 0ebf 2804 8f3f 29d2 9fbd fd3f 9d3c
00000360: 1170 ec3e 9939 e13c 79b8 83bf b442 053f
00000370: 4858 f03e b3ad 143d d8ed 6e3f 41eb 3bbf
00000380: 6b5d 793e 200d 3abf 3718 693f c09e 31bf
00000390: d4b6 0bbf 252d 613e c211 50bc fb6b acbb
000003a0: a925 863c 2fca 14be af3b 403f fbb3 213f
000003b0: acd0 78be 73e5 bc3e 3924 34bf 6c85 423f
000003c0: 3933 203f 1078 553e 7ce4 66bf 1d87 f2be
000003d0: 41c4 783e 3f9b 4ebd b9f2 77bf dd6c 823f
000003e0: 7d18 c73e 44fe 73bf 65b7 563e 87fb 18bf
000003f0: 7c68 f43e f4fe fa3e 5944 ca3e 9785 7ebd

gru.bias_ih_l0 f4 [384]
-0.37147632 -0.5691938 -0.650545 -0.46653762 -0.6084334 -0.6279907 -0.23113556 -0.9223404
-1.7255251 -0.7165166 -0.97096586 0.09121602 -0.61865306 -0.55677724 -0.6013673 -0.011987237
-0.18697144 -0.4769427 -0.5264614 0.2925616 -0.6021084 -0.8350273 -0.5320825 -0.82168305
-0.089006886 -0.12883174 -0.4031815 -0.84332013 -0.722226 -0.300045 -0.42460665 -0.6175765
-0.7656879 -1.8262026 -2.3704655 -0.48979884 -1.628343 -0.22044861 -0.11582518 0.0781243
0.110015586 -0.7519002 -0.8366838 -0.12368382 0.8838564 -0.68545777 -0.3818047 -0.6682453
-0.3127069 -1.1088227 -1.7620997 -0.7047347 -0.3382221 0.00030072845 -0.5059318 -0.0956903
0.033900764 -0.66091955 -0.46322125 -0.43798256 -0.644388 -0.014477279 -0.6941928 -0.2386114
-0.21495238 -0.5361818 -3.3458912 -0.26797882 -2.3119767 -2.6097896 -0.38594308 -0.6195194
-0.39818108 0.5375949 -0.39896342 -0.6731548 -0.20382096 -0.41191885 -0.46936423 0.30512375
-0.58317584 -0.20880428 -0.16309416 -0.30131507 -1.0429809 -0.4804862 -0.470633 0.5932361
-0.3236966 -0.51376086 -0.31689304 -1.1825595 -0.5096774 -0.24210143 -0.06515299 -0.0041481825
-0.6787624 -0.14021316 -0.5018749 -0.04211149 -0.4512658 -0.7025308 -1.7880566 -0.71402735
-1.557474 -0.7903948 -0.469456 -0.59122545 -0.32789075 -0.44257376 -0.54904956 -0.37572688
-1.2662377 -0.5904878 -0.6405157 -0.7103182 -0.34256333 -0.41308877 -0.11530315 -0.2813595
-0.11065688 -0.24773109 -0.5119706 -0.6967822 -0.33041793 -0.50397617 -1.7665343 -0.4097092
1.0337589 0.72507817 0.035060443 0.75216544 1.7612656 0.36786413 0.48930803 0.6504713
-0.80499715 1.4708744 1.108891 0.4487679 1.5889397 0.553582 1.1289048 -0.04089936
0.78692836 0.29721805 0.927097 -0.19186746 -0.13166553 1.2351582 -0.002958278 0.96090716
-0.25246543 -0.037322823 1.1516562 0.49563843 0.5490686 0.5218482 1.1085227 -0.24311349
1.2583613 -0.5693765 -0.523868 1.23166 0.20228273 0.22804394 0.83422565 0.11235049
0.16063991 0.57120967 1.3490254 0.57395875 0.19534856 1.0168235 0.678042 0.21232753
0.549525 0.08983242 -0.24920776 1.3670174 0.45316768 0.51735026 -0.07615325 0.9628066
0.04878554 1.2899455 0.61971444 1.4391508 1.1175478 1.0588714 0.6067504 0.17151254
0.75422144 0.9788227 -0.54785395 0.5560131 -0.565865 -0.16603103 0.9662715 0.82081634
0.66466033 -0.41755888 0.2776276 0.57788795 0.28380242 0.50758773 0.65966576 -0.685824
0.81714785 1.1015384 0.3806033 1.0016257 0.6894424 1.2250676 0.6005779 0.42352647
1.3858443 1.0391047 0.28249326 0.84229743 0.92484474 0.58839965 0.01157074 0.31814432
0.9261515 -0.6144645 0.75291365 0.040557705 -0.19975911 1.0898978 -0.18703625 1.2558782
0.17891309 0.57042336 0.68027776 0.7938045 0.5456298 0.9618638 0.5646633 0.76733875
-0.30834568 1.303322 0.51047605 0.79345423 1.002959 0.16101165 0.48558083 1.1933646
0.93805325 0.014160985 0.47192246 1.1806386 1.1016128 0.4848164 -0.28612885 0.7454665
00000000: 2532 bebe afb6 11bf 1e8a 26bf 05de eebe
00000010: 4bc2 1bbf 00c4 20bf cdae 6cbe 801e 6cbf
00000020: 02de dcbf a26d 37bf 3891 78bf 77cf ba3d
00000030: 0c60 1ebf f488 0ebf 35f3 19bf 1e66 44bc
00000040: 7175 3fbe d531 f4be 2dc6 06bf a2ca 953e
00000050: c723 1abf 59c4 55bf 8f36 08bf d259 52bf
00000060: 3e49 b6bd 78ec 03be ce6d cebe d4e3 57bf
00000070: cee3 38bf 809f 99be 0b66 d9be 7e19 1ebf
00000080: 1f04 44bf 02c1 e9bf b5b5 17c0 eac6 fabe
00000090: 8b6d d0bf 48bd 61be c135 edbd a2ff 9f3d
000000a0: da4f e13d 887c 40bf e930 56bf f14d fdbd
000000b0: 6a44 623f 297a 2fbf e87b c3be 2012 2bbf
000000c0: 1e1b a0be e7ed 8dbf 7c8c e1bf 7e69 34bf
000000d0: 722b adbe 17ab 9d39 bf84 01bf 47f9 c3bd
000000e0: 87db 0a3d 0632 29bf 562b edbe 403f e0be
000000f0: 9df6 24bf 1c32 6dbc 9fb6 31bf 8c56 74be
00000100: 7a1c 5cbe 3643 09bf 1523 56c0 8534 89be
00000110: 6df7 13c0 cb06 27c0 559a c5be d398 1ebf
00000120: 64de cbbe d29f 093f ef44 ccbe df53 2cbf
00000130: 71b6 50be 07e7 d2be 8250 f0be 2e39 9c3e
00000140: 034b 15bf cad0 55be 2802 27be f845 9abe
00000150: 6680 85bf 4a02 f6be cff6 f0be 52de 173f
00000160: 90bb a5be d585 03bf ce3f a2be 1c5e 97bf
00000170: 387a 02bf 70e9 77be ee6e 85bd 7aed 87bb
00000180: 5fc3 2dbf 0a94 0fbe e07a 00bf 197d 2cbd
00000190: 500c e7be 0fd9 33bf 0adf e4bf 7fca 36bf
000001a0: 4f5b c7bf 5057 4abf 895c f0be 8d5a 17bf
000001b0: 4ce1 a7be 0799 e2be 838e 0cbf 465f c0be
000001c0: 1414 a2bf 352a 17bf d6f8 23bf 6ad7 35bf
000001d0: 7664 afbe 5f80 d3be 0f24 ecbd 5a0e 90be
000001e0: 13a0 e2bd 38ad 7dbe 8110 03bf 5160 32bf
000001f0: 8a2c a9be 9504 01bf cc1d e2bf 67c5 d1be
00000200: 3652 843f b99e 393f 8a9b 0f3d ea8d 403f
00000210: 2771 e13f b058 bc3e 9586 fa3e 4a85 263f
00000220: 4b14 4ebf 9d45 bc3f 24f0 8d3f e8c4 e53e
00000230: 6062 cb3f 8db7 0d3f f47f 903f 1686 27bd
00000240: 2374 493f f72c 983e 3b56 6d3f e778 44be
00000250: 54d3 06be aa19 9e3f abdf 41bb 03fe 753f
00000260: 2643 81be d1df 18bd 7869 933f 52c4 fd3e
00000270: c38f 0c3f d897 053f 12e4 8d3f bef2 78be
00000280: fc11 a13f a9c2 11bf 371c 06bf 09a7 9d3f
00000290: 3423 4f3e 5a84 693e d08f 553f 0418 e63d
000002a0: ca7e 243e cc3a 123f ddac ac3f f6ee 123f
000002b0: 7409 483e 4627 823f 2994 2d3f 636c 593e
000002c0: acad 0c3f 0ffa b73d 5230 7fbe 6dfa ae3f
000002d0: 9805 e83e 1171 043f 3cf6 9bbd 7e7a 763f
000002e0: 59d3 473d ef1c a53f 9ba5 1e3f 1836 b83f
000002f0: ce0b 8f3f 1989 873f ff53 1b3f fca0 2f3e
00000300: a814 413f 2094 7a3f 2840 0cbf e056 0e3f
00000310: 87dc 10bf 0a04 2abe 925d 773f 0521 523f
00000320: 2e27 2a3f 47ca d5be 3425 8e3e 77f0 133f
00000330: 8d4e 913e 45f1 013f dbdf 283f 2992 2fbf
00000340: 9a30 513f 36ff 8c3f 70de c23e 4535 803f
00000350: 4c7f 303f 04cf 9c3f 79bf 193f 76d8 d83e
00000360: 5963 b13f 6201 853f f5a2 903e cea0 573f
00000370: a0c2 6c3f 5ca1 163f 3393 3d3c d0e3 a23e
00000380: 4418 6d3f 8c4d 1dbf f3be 403f d61f 263d
00000390: a78d 4cbe c581 8b3f 6e86 3fbe 9ec0 a03f
000003a0: fe34 373e 4407 123f af26 2e3f c636 4b3f
000003b0: 65ae 0b3f b53c 763f c68d 103f 5070 443f
000003c0: 7cdf 9dbe 41d3 a63f 8fae 023f d11f 4b3f
000003d0: f660 803f 3de0 243e 0d9e f83e 2cc0 983f
000003e0: 4224 703f 7a03 683c d29f f13e 2a1f 973f
000003f0: a601 8d3f db39 f83e 7b7f 92be e4d6 3e3f

gru.bias_hh_l0 f4 [384]
-0.502577 -0.6855148 -0.7113245 -0.4917473 -0.65750295 -0.5655238 -0.24363974 -0.9445726
-1.6164222 -0.76147985 -1.0488216 0.13484257 -0.513418 -0.58749866 -0.73768157 0.01445887
-0.041865084 -0.47730115 -0.64450395 0.27273154 -0.5224983 -0.69832367 -0.59222174 -0.7606931
-0.23201363 -0.09897688 -0.31540483 -0.88078016 -0.8250621 -0.27892295 -0.3751909 -0.5759634
-0.64122623 -1.7221681 -2.3268561 -0.5680167 -1.6102805 -0.25557828 -0.09340951 0.08227605
0.043653503 -0.81073725 -0.8840274 -0.076218046 0.7489604 -0.78202975 -0.37658718 -0.72280777
-0.25327453 -1.1961689 -1.658102 -0.7575112 -0.26712862 -0.05863892 -0.5534481 -0.17203449
-0.031449694 -0.760885 -0.49951 -0.46622798 -0.688186 0.008433671 -0.7130158 -0.3921275
-0.22707434 -0.5625377 -3.205754 -0.14828855 -2.2646568 -2.5776072 -0.22509217 -0.6284079
-0.39064634 0.5291207 -0.44272512 -0.7136063 -0.24096915 -0.4131747 -0.44405845 0.22084992
-0.66166764 -0.1931619 -0.23827498 -0.18711182 -0.98144466 -0.39605698 -0.44398758 0.637968
-0.26880258 -0.4593755 -0.4484378 -1.136792 -0.60127705 -0.28214917 0.07447628 -0.0894691
-0.6572682 -0.165969 -0.5217792 0.014288907 -0.5008093 -0.75892115 -1.8871342 -0.74831444
-1.5365607 -0.7922793 -0.4858819 -0.5119344 -0.3647798 -0.4152497 -0.64541864 -0.32842356
-1.1658964 -0.5261745 -0.6874527 -0.587923 -0.39130142 -0.4329092 0.01120647 -0.2907867
-0.041801047 -0.2659465 -0.54225117 -0.58320004 -0.4452794 -0.49719504 -1.9119196 -0.38723338
0.95399326 0.7186864 0.03666742 0.85055095 1.797726 0.31715766 0.44128487 0.5665868
-0.8747366 1.5531274 1.094451 0.43527886 1.5675018 0.5887011 1.193579 0.0037189159
0.8277055 0.3404489 0.87851655 -0.22490363 -0.10319486 1.1359009 0.12503335 0.94379365
-0.19652483 -0.049970597 1.0584757 0.5215059 0.58177215 0.4760917 1.0473155 -0.31380466
1.1557853 -0.5202836 -0.50724846 1.2519015 0.282279 0.33992514 0.7927367 0.23236597
0.06677825 0.57428336 1.3308861 0.53512347 0.35177985 1.0166396 0.7566588 0.067160435
0.5233572 0.055885635 -0.1616572 1.3293451 0.29191902 0.39065307 -0.12735546 0.86406124
-0.029047208 1.2921644 0.6537828 1.4291502 1.0371212 1.1701419 0.57183534 0.16684619
0.76372457 0.95837355 -0.4556785 0.5194278 -0.6053325 -0.020871397 0.95299745 0.90854144
0.67090786 -0.34467596 0.377349 0.6822906 0.25500652 0.42584795 0.6224565 -0.68912756
0.6851076 1.0348026 0.31903744 0.98320144 0.683902 1.2878746 0.7278109 0.5294674
1.4757234 1.0641476 0.36439237 0.8749189 0.9973008 0.5576892 -0.10068908 0.43746495
1.0372881 -0.60192704 0.6277435 0.16019128 -0.1454723 1.0766013 -0.1118094 1.2173113
0.12407848 0.6977846 0.67030746 0.76390064 0.5085203 1.0250357 0.6057601 0.76498026
-0.3829484 1.3976628 0.57136804 0.73838276 0.92803925 0.1316714 0.61224765 1.2331561
0.836018 0.15209714 0.4561286 1.2301815 1.1425204 0.43322462 -0.19394574 0.8304735
00000000: e3a8 00bf e67d 2fbf 5d19 36bf 4dc6 fbbe
00000010: 1d52 28bf 2bc6 10bf b27c 79be 83cf 71bf
00000020: ece6 cebf 58f0 42bf c93f 86bf 2c14 0a3e
00000030: 5d6f 03bf 5066 16bf b3d8 3cbf e5e4 6c3c
00000040: b97a 2bbd d160 f4be 36fe 24bf 78a3 8b3e
00000050: 73c2 05bf 57c5 32bf d89b 17bf c8bc 42bf
00000060: fb94 6dbe 64b4 cabd be7c a1be cf7a 61bf
00000070: 4537 53bf fdce 8ebe 0619 c0be 5672 13bf
00000080: 6727 24bf 0170 dcbf 36eb 14c0 8b69 11bf
00000090: ac1d cebf 28db 82be 7c4d bfbd 5880 a83d
000000a0: 04ce 323d 7a8c 4fbf 9f4f 62bf 3518 9cbd
000000b0: debb 3f3f 1a33 48bf 09d0 c0be ee09 39bf
000000c0: 33ad 81be 101c 99bf b03c d4bf 41ec 41bf
000000d0: 15c5 88be 5d2f 70bd c6ae 0dbf cf29 30be
000000e0: 65d1 00bd 5cc9 42bf c6bf ffbe 6fb5 eebe
000000f0: f52c 30bf 612d 0a3c 3488 36bf f0c4 c8be
00000100: 2d86 68be 7902 10bf 132b 4dc0 f4d8 17be
00000110: 23f0 10c0 84f7 24c0 907e 66be 57df 20bf
00000120: cc02 c8be 7474 073f deac e2be e7ae 36bf
00000130: 9ec0 76be a28b d3be a15b e3be 7b26 623e
00000140: 0d63 29bf 3ccc 45be 5bfe 73be 3e9a 3fbe
00000150: f53f 7bbf fbc7 cabe 5752 e3be df51 233f
00000160: 7ea0 89be 4433 ebbe a499 e5be 6682 91bf
00000170: 4bed 19bf db75 90be 0587 983d 933b b7bd
00000180: bb42 28bf c7f3 29be 5293 05bf 051c 6a3c
00000190: 0a35 00bf a848 42bf 9d8d f1bf 8991 3fbf
000001a0: 05ae c4bf d1d2 4abf 83c5 f8be 220e 03bf
000001b0: 6bc4 babe 9c9b d4be 283a 25bf 2227 a8be
000001c0: 183c 95bf 5fb3 06bf e6fc 2fbf 1f82 16bf
000001d0: a958 c8be 46a6 ddbe 589b 373c ffe1 94be
000001e0: 9337 2bbd 242a 88be f9d0 0abf 994c 15bf
000001f0: a9fb e3be 5990 febe c8b9 f4bf 7443 c6be
00000200: e738 743f d5fb 373f 9430 163d b5bd 593f
00000210: e31b e63f 7d62 a23e 17f0 e13e d50b 113f
00000220: bdee 5fbf e1cc c63f f816 8c3f dfdc de3e
00000230: e6a3 c83f 1eb5 163f 32c7 983f 0eb9 733b
00000240: 82e4 533f 514f ae3e 76e6 603f 234d 66be
00000250: d457 d3bd 3365 913f be08 003e 769c 713f
00000260: ce3d 49be f8ad 4cbd 227c 873f 6981 053f
00000270: 05ef 143f 4bc2 f33e 6f0e 863f 01ab a0be
00000280: c6f0 933f 4e31 05bf 09db 01bf 4f3e a03f
00000290: e086 903e ab0a ae3e cbf0 4a3f 58f1 6d3e
000002a0: 09c3 883d 3c04 133f 7a5a aa3f dafd 083f
000002b0: 7d1c b43e 3f21 823f 64b4 413f 698b 893d
000002c0: bdfa 053f 56e8 643d 7789 25be fb27 aa3f
000002d0: 6976 953e ae03 c83e 7869 02be 1e33 5d3f
000002e0: 69f4 edbc a565 a53f 4f5e 273f 65ee b63f
000002f0: 63c0 843f 36c7 953f cd63 123f bad9 2a3e
00000300: 7483 433f f857 753f b14e e9be 38f9 043f
00000310: 12f7 1abf 7efa aabc a4f7 733f 2c96 683f
00000320: 9ec0 2b3f 5e79 b0be e333 c13e 99aa 2e3f
00000330: 3790 823e be08 da3e 4f59 1f3f aa6a 30bf
00000340: 3663 2f3f 6974 843f e058 a33e 17b3 7b3f
00000350: 3414 2f3f 13d9 a43f d151 3a3f 2d8b 073f
00000360: 81e4 bc3f fd35 883f a391 ba3e affa 5f3f
00000370: 1b4f 7f3f b8c4 0e3f 1436 cebd 68fb df3e
00000380: dbc5 843f e417 1abf ccb3 203f 2f09 243e
00000390: b1f6 14be 12ce 893f 54fc e4bd dbd0 9b3f
000003a0: dc1c fe3d 03a2 323f 4599 2b3f fe8e 433f
000003b0: 632e 023f 5f34 833f 1813 1b3f bfd5 433f
000003c0: d011 c4be 9de6 b23f 2d45 123f a706 3d3f
000003d0: fb93 6d3f ded4 063e 43bc 1c3f 0fd8 9d3f
000003e0: 4705 563f 5abf 1b3e b089 e93e 9676 9d3f
000003f0: 1c3e 923f 9ecf dd3e b699 46be e999 543f

dense1.weight f4 [128, 129]
-0.31029308 0.41017 1.3471005 0.053889662 -1.8199794 -1.081982 0.2497724 -0.4656562
-0.106138885 0.4194361 -0.24249235 0.5991746 -0.71166074 0.7522184 0.4365371 -0.8130234
-0.665575 0.8077996 0.65405506 -0.09662967 0.2908322 -0.9798658 0.24495876 -1.1736106
-0.34945035 1.3141218 1.3560929 -0.3442565 -0.19049527 -0.3971964 -0.82127136 -0.44265705
-0.55453306 0.053589057 -0.18582053 0.97485197 1.3270335 -0.16288471 1.9141399 0.44782096
-2.1053717 0.03983364 -0.84537244 -0.010907739 -0.21394663 0.79403 0.4825927 1.8116174
-0.531982 1.3237786 -1.4376246 0.2988679 -0.4504382 0.41737542 0.4761479 1.1179414
-0.077091485 -0.33043522 0.48360318 0.65038747 0.93063235 -0.79495853 -0.3138656 -1.7658358
-1.632864 0.63524634 1.316363 -0.12374128 0.71024513 -1.2510537 0.080100864 0.51947576
-0.06263559 -0.30419594 0.7726588 0.7683911 -0.40654242 0.614327 -0.17813924 -0.43474916
-0.29090422 0.72494656 0.16956899 0.58991057 -1.440529 -0.21416998 0.17522223 0.04209455
-0.81878763 -0.2085104 -1.1638182 0.43980303 0.31172663 0.16771498 0.25510317 -0.038479958
0.13881984 -0.38666323 -1.054144 -0.17918594 0.14056224 0.15620604 1.4530436 0.43713385
-0.84860045 0.3025815 -0.13197663 -1.1331099 -1.0782453 -1.569926 -0.30547848 0.38591927
0.5445648 1.09837 0.51560044 0.32887417 1.2266576 -1.1996721 1.771687 0.31555197
-0.022584848 -0.34082517 0.8192004 -0.044981953 -0.2026164 0.54828125 -1.2047561 -1.1036139
-1.5282485 0.05560918 -0.9274756 1.6564988 -0.91308767 0.3320478 -0.18739562 0.016476542
0.23961417 1.4682369 1.1212566 1.2011226 0.19614616 0.13509223 0.72001785 0.35462782
1.1832091 -0.13517594 -0.22957113 0.25360355 -0.46362615 -0.12604924 0.03228727 -1.2951853
0.35064566 2.8471138 0.1587858 -0.89553344 -0.1410355 0.28747922 0.3386087 -0.4114734
-0.14392455 0.4831221 2.3799212 2.4877672 -1.0240133 -0.4304626 1.0638521 -0.3969483
0.5388336 2.1408746 0.014243369 0.50620836 0.40307733 -0.124328256 -1.8553075 1.1471181
-0.25893316 0.6723591 -1.3452021 1.4978095 -0.2273874 -0.2623836 0.12430549 0.8539209
-0.8365865 1.3304684 -1.0474627 0.53324884 0.40782872 -0.62806773 -1.4569077 -0.97411335
0.59263295 1.1765057 -0.4973254 -0.98472786 0.07082885 -2.092408 0.76220167 0.4997754
0.24360447 -0.03852169 0.36368573 1.0533332 0.21831593 1.4996445 -0.28536803 -0.8388287
0.24418032 0.28305325 -0.1909163 -0.34997022 -0.44107392 0.38032806 1.695564 0.6561939
-0.548286 0.017150642 0.50443614 1.3640382 2.1015997 0.3450109 1.8051728 0.114573196
1.2523882 -0.38337898 0.17429572 0.15628882 0.22354114 -0.11970798 -0.9823405 -0.87506413
0.12223372 0.5408339 -0.24857213 0.11827368 0.358022 -1.343522 1.0732042 -1.0822424
1.2475041 -0.1851902 0.43823516 0.9672248 -2.5605998 0.15886462 0.05252252 0.47464618
0.053655054 -0.2935718 -1.03192 -0.26235905 -0.14424153 0.017814696 0.20082942 1.8550591
00000000: bcde 9ebe cd01 d23e ca6d ac3f 68bb 5c3d
00000010: 16f5 e8bf 637e 8abf 56c4 7f3e 7d6a eebe
00000020: 585f d9bd 54c0 d63e ea4f 78be 8263 193f
00000030: 662f 36bf 6391 403f ca81 df3e 4d22 50bf
00000040: 2063 2abf f4cb 4e3f 2770 273f c7e5 c5bd
00000050: f5e7 943e 7cd8 7abf 78d6 7a3e df38 96bf
00000060: 28eb b2be 2535 a83f 7494 ad3f 6342 b0be
00000070: 3111 43be 545d cbbe d73e 52bf f2a3 e2be
00000080: e1f5 0dbf 3380 5b3d bd47 3ebe e68f 793f
00000090: 3cdc a93f 40cb 26be 8902 f53f ca48 e53e
000000a0: 69be 06c0 9928 233d 546a 58bf 60b6 32bc
000000b0: d314 5bbe 8d45 4b3f 6416 f73e 14e3 e73f
000000c0: f92f 08bf 9471 a93f 1504 b8bf 3705 993e
000000d0: d69f e6be 3bb2 d53e a8c9 f33e b418 8f3f
000000e0: 24e2 9dbd ce2e a9be d69a f73e cb7f 263f
000000f0: ec3d 6e3f 6782 4bbf feb2 a0be e806 e2bf
00000100: b001 d1bf 819f 223f 957e a83f 116c fdbd
00000110: a0d2 353f 8722 a0bf ec0b a43d 5dfc 043f
00000120: 1747 80bd 92bf 9bbe f8cc 453f 47b5 443f
00000130: 5426 d0be 8944 1d3f 226a 36be 7197 debe
00000140: 66f1 94be 1996 393f 7ea3 2d3e 6104 173f
00000150: 4163 b8bf 604f 5bbe 756d 333e 566b 2c3d
00000160: 119c 51bf c083 55be fff7 94bf dd2d e13e
00000170: a29a 9f3e 7abd 2b3e e29c 823e 299d 1dbd
00000180: ca26 0e3e b9f8 c5be 31ee 86bf 857c 37be
00000190: 8cef 0f3e 7af4 1f3e 55fd b93f 02d0 df3e
000001a0: e13d 59bf f6eb 9a3e e224 07be bf09 91bf
000001b0: f103 8abf 56f3 c8bf ad67 9cbe 3697 c53e
000001c0: 9968 0b3f 6397 8c3f 64fe 033f 3262 a83e
000001d0: 1e03 9d3f db8e 99bf a4c6 e23f 0790 a13e
000001e0: dc03 b9bc a380 aebe 1eb7 513f ff3e 38bd
000001f0: ac7a 4fbe 295c 0c3f 7335 9abf 3843 8dbf
00000200: a69d c3bf 74c6 633d 0a6f 6dbf 2708 d43f
00000210: 1dc0 69bf 2b02 aa3e a3e4 3fbe d0f9 863c
00000220: 6b5d 753e 30ef bb3f 5685 8f3f 63be 993f
00000230: 8ada 483e 9e55 0a3e 1753 383f c791 b53e
00000240: 6573 973f 906b 0abe b214 6bbe 53d8 813e
00000250: 6860 edbe 0d13 01be a83f 043d a2c8 a5bf
00000260: d487 b33e 1d37 3640 bf98 223e ae41 65bf
00000270: 9c6b 10be 7a30 933e 1f5e ad3e a4ac d2be
00000280: f560 13be c85b f73e a150 1840 9437 1f40
00000290: de12 83bf 9865 dcbe 4e2c 883f cf3c cbbe
000002a0: 00f1 093f 1704 0940 055d 693c df96 013f
000002b0: 2760 ce3e d09f febd b77a edbf c4d4 923f
000002c0: e392 84be ba1f 2c3f 952f acbf 39b8 bf3f
000002d0: 3ed8 68be 2557 86be e093 fe3d 8f9a 5a3f
000002e0: 882a 56bf ca4c aa3f 4213 86bf ff82 083f
000002f0: edce d03e 0cc9 20bf f47b babf 7e5f 79bf
00000300: cbb6 173f bd97 963f 6fa1 febe 2017 7cbf
00000310: b70e 913d 03ea 05c0 a61f 433f 90e2 ff3e
00000320: 7373 793e ebc8 1dbd 0435 ba3e 9fd3 863f
00000330: 368e 5f3e 5af4 bf3f c21b 92be 7abd 56bf
00000340: 680a 7a3e 5bec 903e 907f 43be 4c2f b3be
00000350: 71d4 e1be 5cba c23e 3e08 d93f 53fc 273f
00000360: 795c 0cbf 817f 8c3c ba22 013f ce98 ae3f
00000370: 9c80 0640 45a5 b03e e70f e73f 5aa5 ea3d
00000380: 424e a03f 404a c4be 947a 323e 2d0a 203e
00000390: f8e7 643e 7529 f5bd ab7a 7bbf 3404 60bf
000003a0: ac55 fa3d 1774 0a3f b189 7ebe 7939 f23d
000003b0: a94e b73e 87f8 abbf c15e 893f eb86 8abf
000003c0: 37ae 9f3f 80a2 3dbe 5c60 e03e 0b9c 773f
000003d0: dee0 23c0 68ad 223e db21 573d d304 f33e
000003e0: 67c5 5b3d 0b4f 96be f415 84bf ed53 86be
000003f0: 0db4 13be 20f0 913c 3aa6 4d3e 9472 ed3f

dense1.bias f4 [128]
-1.3059477 -0.067752615 -0.7373302 0.5161729 0.14451618 0.120568134 -0.7796379 -0.82388765
-0.46446884 -0.21013273 -0.5004292 0.5005503 -0.26847866 0.039842036 -0.26385817 -0.15479982
-1.1899482 -0.6054729 -1.2431722 -0.266132 -0.5431539 0.5469612 0.35414058 0.06418963
0.44133636 -0.61199945 -0.2951404 0.5997748 -0.6006996 -0.40049443 0.0225932 -0.22098033
0.5484474 -0.38062194 -0.960309 -0.75917524 -0.53722066 -0.22101493 -0.31171685 -0.6778987
-1.0347506 0.46165597 -0.19460358 -0.52530175 -0.5401989 -0.9719187 -0.46122327 0.43656674
-0.3719347 -1.0849742 -0.4293538 -0.67462957 -0.22667694 0.45727426 0.113733105 -1.0075482
-0.017175416 -1.0424454 -0.93808 -0.44159624 -0.16272695 0.0064493823 -0.16126369 -0.4831649
-0.78866154 -1.2633967 0.3695086 -0.6662913 -0.03067656 -0.67789394 -0.5948657 -0.45935184
-0.64827865 -0.9004189 0.15470923 -0.7358197 -0.44012102 -0.2162417 -0.46733707 -0.14723185
-0.8637074 -0.14476225 -1.316792 -0.51039964 -0.93027604 -0.46157876 -0.3326674 -0.106077865
0.21618535 -0.49031004 -0.9269831 -0.2587309 -0.44017395 -0.6989549 -0.7591227 -0.8049037
-0.7084337 -0.10642015 -0.92701834 -0.5599989 -0.34775707 -1.1646656 -0.31203133 -0.35747647
-0.23952773 -0.16228774 -0.41614085 -0.6913172 -0.7250395 -1.5715115 -0.84974414 -0.37501326
-0.34445995 -0.9472374 0.054278832 -0.9221034 -0.8681761 -0.21959081 -0.019185113 -0.46097
-1.0556824 0.3776197 -0.96095055 -0.6215201 0.049241614 -0.31339413 -0.092691526 -0.18114135
00000000: 4b29 a7bf e2c1 8abd acc1 3cbf e823 043f
00000010: 0dfc 133e 6dec f63d 5996 47bf 4dea 52bf
00000020: dcce edbe 092d 57be 211c 00bf 1124 003f
00000030: 0976 89be 6731 233d 6b18 87be d883 1ebe
00000040: 3950 98bf 4600 1bbf 4420 9fbf 7442 88be
00000050: 220c 0bbf a605 0c3f ea51 b53e da75 833d
00000060: d7f6 e13e ffab 1cbf a41c 97be d78a 193f
00000070: 73c7 19bf 9b0d cdbe 6015 b93c ab48 62be
00000080: 0c67 0c3f e1e0 c2be d0d6 75bf 4f59 42bf
00000090: 4b87 09bf bd51 62be 5a99 9fbe c58a 2dbf
000000a0: b572 84bf 2c5e ec3e 2946 47be 2d7a 06bf
000000b0: 7a4a 0abf aacf 78bf 7525 ecbe ad85 df3e
000000c0: 3a6e bebe 6fe0 8abf 43d4 dbbe 86b4 2cbf
000000d0: 001e 68be da1f ea3e e7ec e83d 57f7 80bf
000000e0: 75b3 8cbc da6e 85bf 0326 70bf e718 e2be
000000f0: e5a1 26be 5755 d33b 4f22 25be 6461 f7be
00000100: b9e5 49bf fcb6 a1bf 3b30 bd3e 1192 2abf
00000110: 694d fbbc 758a 2dbf 1e49 18bf 2a30 ebbe
00000120: 97f5 25bf da81 66bf 196c 1e3e ae5e 3cbf
00000130: 8b57 e1be 776e 5dbe ce46 efbe f2c3 16be
00000140: ee1b 5dbf 8e3c 14be a48c a8bf 8da9 02bf
00000150: 9226 6ebf 0d54 ecbe 6253 aabe 5a3f d9bd
00000160: b15f 5d3e eb09 fbbe c44e 6dbf 6078 84be
00000170: 7b5e e1be b5ee 32bf de55 42bf 2b0e 4ebf
00000180: e95b 35bf cff2 d9bd 1351 6dbf 175c 0fbf
00000190: 370d b2be c313 95bf 92c2 9fbe 2807 b7be
000001a0: c246 75be c22e 26be 6a10 d5be 2afa 30bf
000001b0: 309c 39bf 4a27 c9bf d588 59bf bd01 c0be
000001c0: 0e5d b0be 267e 72bf 7b53 5e3d f80e 6cbf
000001d0: ca40 5ebf 6adc 60be 192a 9dbc 4304 ecbe
000001e0: 9a20 87bf 5f57 c13e db00 76bf f11b 1fbf
000001f0: 93b1 493d 3275 a0be 0ed5 bdbd 1e7d 39be

dense2.weight f4 [1, 128]
3.6741323 -2.300331 -3.051046 -1.0238898 1.5181452 -1.4996748 -1.2852281 -3.115866
-1.6377711 0.50478554 -4.6658726 -0.29584652 0.004333834 -1.006976 1.5967715 -3.0951319
1.4506811 1.3223433 3.9132617 0.4398084 0.0039617987 -2.0754924 5.7975464 -1.2872386
-0.6983309 -4.113141 -1.6678919 -1.0151018 1.9348003 -1.6315846 -1.1128036 0.017715937
-0.60059047 1.0888901 -2.344541 1.8817817 0.62676185 2.5300722 0.77194875 -1.0782044
-4.240163 -0.56206656 1.4646165 1.2422253 0.7512491 1.7001337 -3.2510314 2.9652421
-2.9909434 -4.9244328 -1.9895027 -1.7153909 -0.02284624 -1.7640812 -0.9797773 2.8734803
1.3058394 2.326074 1.6480362 2.1772923 1.2104365 0.54587483 1.2059908 -2.5552766
1.3758615 -9.590172 -1.7358539 1.1936961 0.6302331 2.219189 -1.254114 0.60796726
-2.1367483 3.789374 -0.7934408 -3.5289316 2.83726 1.2610002 -0.6447843 0.48102704
1.4246321 -1.3614305 3.0491345 -4.938403 1.848741 -1.513898 0.34710243 -1.7127886
2.6856751 1.7609178 1.9220436 -1.3937958 1.9646639 -1.5588554 -1.9443699 -2.5258503
1.9219756 1.1092916 1.8731333 1.3524178 -1.3347012 -2.5067527 2.2158031 2.6055064
-0.013572974 1.059939 1.1297827 -1.3427862 1.3405035 3.775297 1.842372 2.1646986
-1.264648 1.3628755 -0.6229368 2.3605075 1.0436873 0.5654449 -0.35128263 2.0215857
2.6393793 -1.0774628 -4.9951606 -1.9883401 1.1715701 1.0743977 0.60448396 1.054022
00000000: fc24 6b40 a038 13c0 5644 43c0 d20e 83bf
00000010: 9552 c23f 58f5 bfbf 5b82 a4bf 596a 47c0
00000020: 7ca2 d1bf a039 013f d44e 95c0 3279 97be
00000030: d602 8e3b 97e4 80bf 0263 cc3f a416 46c0
00000040: ebaf b93f 8c42 a93f e172 7a40 912e e13e
00000050: fad1 813b ded4 04c0 8085 b940 3cc4 a4bf
00000060: d0c5 32bf da9e 83c0 7b7d d5bf dbee 81bf
00000070: 89a7 f73f c4d7 d0bf 5970 8ebf 0321 913c
00000080: 4cc0 19bf c060 8b3f f60c 16c0 39de f03f
00000090: 7773 203f b4ec 2140 6f9e 453f 9a02 8abf
000000a0: 6aaf 87c0 98e3 0fbf 8e78 bb3f 3d01 9f3f
000000b0: dc51 403f fb9d d93f e610 50c0 87c6 3d40
000000c0: 9e6b 3fc0 f494 9dc0 06a8 febf ee91 dbbf
000000d0: 0a28 bbbc 6acd e1bf afd2 7abf 1ae7 3740
000000e0: bf25 a73f 65de 1440 daf2 d23f c258 0b40
000000f0: 95ef 9a3f 74be 0b3f e85d 9a3f a789 23c0
00000100: 3b1c b03f 5871 19c1 7630 debf 09cb 983f
00000110: f556 213f 3107 0e40 cf86 a0bf bea3 1b3f
00000120: 7cc0 08c0 1b85 7240 f01e 4bbf 04da 61c0
00000130: ab95 3540 7468 a13f 9510 25bf 2d49 f63e
00000140: 585a b63f 5b43 aebf 0525 4340 6607 9ec0
00000150: 8ca3 ec3f 69c7 c1bf 69b7 b13e a83c dbbf
00000160: 1ae2 2b40 c165 e13f 8605 f63f e767 b2bf
00000170: 1b7a fb3f 9388 c7bf 1de1 f8bf 88a7 21c0
00000180: 4c03 f63f 44fd 8d3f d5c2 ef3f 071c ad3f
00000190: 7dd7 aabf a36e 20c0 b8cf 0d40 9ec0 2640
000001a0: 2e61 5ebc 15ac 873f b89c 903f 6be0 abbf
000001b0: 9e95 ab3f 779e 7140 d8d2 eb3f 6c8a 0a40
000001c0: fcdf a1bf b472 ae3f c978 1fbf 8e12 1740
000001d0: 8c97 853f ffc0 103f 51db b3be a961 0140
000001e0: 97eb 2840 4dea 89bf 5bd8 9fc0 ee81 febf
000001f0: 02f6 953f dd85 893f 76bf 1a3f 31ea 863f
